Preprocessing/embedding_pretrained_weights_combined.pt (torch, 235343 bytes, 4 tensors)

0.weight f4 [100, 66]
-0.1286587 0.18430923 -0.22265197 0.8213722 0.033554815 -0.45397446 -0.0006937149 0.4618875
0.20159526 0.23355256 0.28703913 0.10943206 -0.5267188 0.39324418 0.21997638 -0.26347423
-0.01653584 -0.17947246 0.30062827 -0.38650945 -0.10885277 0.52686954 0.2409204 0.6740544
0.47415692 -0.21843524 0.11328767 0.46286303 0.5230933 0.0012449005 0.32733262 -0.6156031
0.20057045 -0.47407657 -0.11729965 -0.20296209 0.28412068 -0.05022193 0.024978377 0.49361643
-0.2700953 0.0074448884 -0.000656065 -0.27185342 0.08975686 -0.07492267 0.36965552 -0.021219596
0.034416415 0.3838535 -0.044601746 -0.11415179 -0.11182573 -0.15381257 0.028709121 -0.24665178
-0.0017401249 0.15524292 0.40625638 -0.04562018 -0.13607353 -0.20001544 0.24167179 -0.19109623
-0.08644678 -0.056575738 -0.1897605 0.44059333 0.38189644 -0.07410229 -0.04793709 -0.14147168
-0.027915437 0.22482258 0.0012270499 0.014527085 -0.30176163 -0.27892146 -0.27304494 -0.56232905
0.1724657 0.52177745 0.08808492 0.96556056 -0.13792071 0.4769152 -0.04960113 -0.1594771
-0.38183695 0.31534213 0.06485071 -0.30606 -0.11582598 -0.5492112 -0.5882232 0.07310982
0.002800542 0.045895193 0.013082548 -0.4892235 -0.2327357 0.24041742 0.31588098 -0.021098321
-0.17470917 0.67066056 -0.08443083 -0.049035624 0.03901637 0.04622566 -0.08923052 0.2439007
0.2795663 -0.015306056 -0.24370982 -0.34355918 0.032642897 0.07741449 -0.33530933 -0.1597893
0.037007816 0.16149011 0.23561256 0.261851 0.15435869 0.04134029 -0.28074205 -0.11848708
-0.41492185 -0.13376199 -0.02750986 -0.011719637 -0.42718977 0.78301835 -0.3468772 0.08909444
0.0154121835 0.32721698 0.067915276 0.2837325 -0.5538256 0.15487257 0.44722486 -0.048893847
-0.42615807 -0.31894964 0.43274036 0.057083633 -0.09373164 0.04081956 -0.5830526 -0.2294071
0.0051979274 -0.30866313 -0.36266464 -0.24697869 0.6384667 0.46867818 -0.01875282 -0.14216925
-0.1976898 -0.12267528 -0.041395195 0.31313804 -0.134141 -0.20827869 -0.38313282 -0.053846717
0.30964226 -0.24677299 -0.37022817 0.5955433 -0.13133979 -0.06546238 0.16736817 0.19282702
-0.0046370775 -0.16674696 0.27746725 0.24288782 -0.13792397 -0.14721717 -0.30295908 -0.13119224
0.00022358421 -0.22273932 0.11270529 0.18937737 -0.5308682 -0.24849704 -0.34799263 -0.10255623
-0.22228508 0.013975462 -0.06178198 -0.13943437 0.08342342 -0.031816885 -0.10224157 -0.16101246
-0.17620546 0.42314756 -0.012067351 0.54820776 -0.05275989 0.34448412 -0.113479055 0.6869687
-0.025586963 -0.46318185 -0.33476612 0.12160622 -0.36511722 -0.1934125 -0.023003295 -0.160261
0.13577092 0.17313205 0.11591251 0.18657488 -0.13983268 -0.25735176 0.62451684 -0.34701794
-0.031789035 0.12537993 -0.60437363 0.2999436 -0.39294213 0.67789507 -0.14798637 -0.3459145
-0.60824084 -0.15946096 -0.32811984 -0.36605027 0.16033411 -0.0331089 -0.32294574 -0.079236865
0.191896 -0.31444213 0.4205101 -0.0781604 -0.06780082 -0.22905897 -0.327686 0.29044005
-0.35866898 -0.1016416 -0.47472993 0.553451 -0.4729117 0.2052546 0.48490706 -0.044423543
00000000: 1bbf 03be 8fbb 3c3e e1fe 63be 7345 523f
00000010: c670 093d 576f e8be 6bda 35ba 857c ec3e
00000020: fd6e 4e3e 6728 6f3e cbf6 923e ea1d e03d
00000030: 0bd7 06bf 4d57 c93e 7d41 613e 18e6 86be
00000040: 2c76 87bc a1c7 37be f3eb 993e 91e4 c5be
00000050: 33ee debd ece0 063f d6b3 763e d48e 2c3f
00000060: b2c4 f23e 7dad 5fbe 5e03 e83d 62fc ec3e
00000070: 71e9 053f ee2b a33a 2498 a73e 2a98 1dbf
00000080: 5762 4d3e 2aba f2be cd3a f0bd 4bd5 4fbe
00000090: 4478 913e 83b5 4dbd 749f cc3c 4bbb fc3e
000000a0: ee49 8abe 40f4 f33b c7fb 2bba 5f30 8bbe
000000b0: 72d2 b73d 0f71 99bd 7d43 bd3e b8d4 adbc
000000c0: 3af8 0c3d 7288 c43e 52b0 36bd 6ac8 e9bd
000000d0: e304 e5bd 0b81 1dbe 642f eb3c 4992 7cbe
000000e0: e714 e4ba 00f8 1e3e d600 d03e 3adc 3abd
000000f0: dc56 0bbe d9d0 4cbe cf78 773e bbae 43be
00000100: 020b b1bd f6bb 67bd 9450 42be 7395 e13e
00000110: ee87 c33e f1c2 97bd af59 44bd f4dd 10be
00000120: eaae e4bc e437 663e f6d4 a03a 0303 6e3c
00000130: 8080 9abe cbce 8ebe 8ccc 8bbe ccf4 0fbf
00000140: d99a 303e 3593 053f de65 b43d fa2e 773f
00000150: 163b 0dbe 3b2e f43e 8e2a 4bbd f74d 23be
00000160: 2280 c3be 8674 a13e 73d0 843d e5b3 9cbe
00000170: 2c36 edbd 1b99 0cbf cc95 16bf 9aba 953d
00000180: 4c89 373b 99fc 3b3d 2f58 563c 817b fabe
00000190: 4452 6ebe fc2f 763e 27bb a13e 63d6 acbc
000001a0: f6e6 32be 69b0 2b3f 12ea acbd 94d9 48bd
000001b0: a1cf 1f3d 1e57 3d3d 7ebe b6bd 1bc1 793e
000001c0: 5023 8f3e 40c6 7abc 118f 79be fde6 afbe
000001d0: 8fb4 053d 7d8b 9e3d aaad abbe ce9f 23be
000001e0: 8295 173d aa5d 253e 6b44 713e 5611 863e
000001f0: 3410 1e3e 7054 293d 6cbd 8fbe 5ba9 f2bd
00000200: a370 d4be e7f8 08be 5c5c e1bc b803 40bc
00000210: 9eb8 dabe e473 483f e399 b1be 2577 b63d
00000220: 6283 7c3c fc88 a73e 2a17 8b3d 6345 913e
00000230: 84c7 0dbf ea96 1e3e a8fa e43e ea44 48bd
00000240: 6431 dabe 5e4d a3be 2590 dd3e 87d0 693d
00000250: 60f6 bfbd 6932 273d ef42 15bf b2e9 6abe
00000260: 6053 aa3b 1809 9ebe 2eaf b9be fbe7 7cbe
00000270: 8e72 233f 96f6 ef3e 849f 99bc d194 11be
00000280: 326f 4abe 2d3d fbbd 028e 29bd a153 a03e
00000290: 425c 09be 0247 55be fc29 c4be 608e 5cbd
000002a0: 6e89 9e3e 0fb2 7cbe 8c8e bdbe 8775 183f
000002b0: f07d 06be 2411 86bd 9062 2b3e 7274 453e
000002c0: a0f2 97bb b7bf 2abe 3010 8e3e 96b7 783e
000002d0: f13b 0dbe 19c0 16be 741d 9bbe 4257 06be
000002e0: ee71 6a39 c715 64be 08d2 e63d 24ec 413e
000002f0: fae6 07bf 0276 7ebe 172c b2be 0009 d2bd
00000300: b39e 63be 56f9 643c 1a0f 7dbd e2c7 0ebe
00000310: e6d9 aa3d 6c52 02bd 0764 d1bd 73e0 24be
00000320: 346f 34be cca6 d83e 23b6 45bc 5857 0c3f
00000330: c11a 58bd 3960 b03e b567 e8bd 2edd 2f3f
00000340: c09b d1bc 2c26 edbe 7766 abbe af0c f93d
00000350: a5f0 babe ed0d 46be 6871 bcbc 761b 24be
00000360: 8807 0b3e 8749 313e 8a63 ed3d 7c0d 3f3e
00000370: 4c30 0fbe 9cc3 83be 56e0 1f3f 56ac b1be
00000380: 3835 02bd 9963 003e 3bb8 1abf 3592 993e
00000390: b62f c9be 888a 2d3f bd89 17be b51b b1be
000003a0: acb5 1bbf bc49 23be 53ff a7be f16a bbbe
000003b0: a02e 243e 339d 07bd 2559 a5be f046 a2bd
000003c0: 6380 443e 8ffe a0be 1a4d d73e 8f12 a0bd
000003d0: 28db 8abd 6f8e 6abe 76c6 a7be 8fb4 943e
000003e0: 76a3 b7be 7929 d0bd cd0f f3be f7ae 0d3f
000003f0: 7b21 f2be 432e 523e bd45 f83e 76f5 35bd

0.bias f4 [100]
0.08809359 0.124503195 0.14567372 0.046964906 0.07323344 0.10662998 -0.18850875 0.1612848
0.062478263 -0.0030876847 0.103888236 0.076094724 -0.020793747 -0.19860105 0.12778008 -0.033934247
-0.0030359358 -0.114608616 -0.12395302 -0.07575207 0.093287565 0.1894357 -0.08405643 -0.13408437
0.19639565 -0.30131182 0.13958503 -0.10389362 -0.1243043 0.100573115 0.13913977 -0.18565659
-0.2241781 0.0040589278 -0.15224639 -0.18664405 -0.05002057 -0.14396407 -0.043615326 0.06840343
0.012233626 -0.13061596 0.0013513693 0.161974 0.07129115 -0.2017795 -0.11540688 -0.082778424
-0.21546438 0.031291172 0.2892146 0.19197695 0.021862214 -0.15296356 0.11102359 0.14817291
0.14738862 -0.1440564 0.03830209 -0.14881216 0.022373239 0.14318617 0.21400228 0.08728852
0.0621174 0.11123583 0.124483824 -0.007151243 -0.08610475 0.15641372 0.04631228 0.109125234
0.1902177 0.11943853 -0.05650685 0.0046514357 -0.2004481 -0.15726435 0.03133527 0.012603472
0.13642527 -0.054792617 -0.017445462 -0.27854946 0.048671238 -0.060509413 -0.14264727 0.21976307
0.10460121 0.053408895 -0.039696056 0.08652588 -0.065370515 -0.12514085 -0.06887717 0.19059211
-0.045262758 0.23286185 0.20428291 -0.0724187
00000000: 6a6a b43d 88fb fe3d 7e2b 153e 465e 403d
00000010: 6afb 953d d260 da3d 7008 41be d827 253e
00000020: 35e9 7f3d c15a 4abb 5bc3 d43d 8dd7 9b3d
00000030: a657 aabc 135e 4bbe c8d8 023e a3fe 0abd
00000040: 8df6 46bb ecb7 eabd 15db fdbd e723 9bbd
00000050: 8d0d bf3d 6ffb 413e c725 acbd 6a4d 09be
00000060: f11b 493e 8b45 9abe 61ef 0e3e 2ec6 d4bd
00000070: 4193 febd 47f9 cd3d a87a 0e3e c31c 3ebe
00000080: f28e 65be c100 853b 7ae6 1bbe 9e1f 3fbe
00000090: 5fe2 4cbd 516b 13be fca5 32bd 1917 8c3d
000000a0: 8c6f 483c 31c0 05be 6e20 b13a 83dc 253e
000000b0: 1801 923d 499f 4ebe 715a ecbd bc87 a9bd
000000c0: b2a2 5cbe 2c2b 003d f013 943e 9b95 443e
000000d0: 6318 b33c 7ba2 1cbe 5660 e33d a4ba 173e
000000e0: 0bed 163e 8583 13be a7e2 1c3d 3762 18be
000000f0: 1548 b73c 659f 123e 6a23 5b3e 53c4 b23d
00000100: d16e 7e3d 9ccf e33d 60f1 fe3d f954 eabb
00000110: b057 b0bd eb2a 203e f2b1 3d3d 0d7d df3d
00000120: 6ec8 423e 309c f43d ba73 67bd 126b 983b
00000130: 4442 4dbe e809 21be 6959 003d cb7e 4e3c
00000140: 11b3 0b3e 396e 60bd c9e9 8ebc 099e 8ebe
00000150: 7e5b 473d b8d8 77bd 2012 12be 9209 613e
00000160: 2939 d63d 49c3 5a3d 5598 22bd 7b34 b13d
00000170: fae0 85bd ec24 00be 790f 8dbd 942a 433e
00000180: 7165 39bd 5673 6e3e 8a2f 513e 4150 94bd

2.weight f4 [512, 100]
0.27492967 -0.23872751 -0.024185868 0.17579505 0.013820066 -0.11824038 -0.02352254 0.15178181
-0.15661001 -0.22399253 0.119344585 -0.22121727 -0.38248205 0.23060785 -0.024461577 -0.21535413
-0.048582043 -0.2245557 -0.13367516 0.39336643 -0.17364176 0.028756497 -0.15737037 0.07205376
-0.11976492 0.43654656 -0.24370842 0.29594028 0.059387565 -0.12759556 0.1789641 0.1419077
-0.18685304 -0.028655672 0.15213458 -0.06687499 -0.046826366 -0.015723595 0.16575114 0.250026
-0.22126582 -0.07736141 0.36544946 -0.2276765 0.06694531 -0.25303984 -0.112418965 0.06727159
0.09816305 0.13384774 -0.028579071 0.1980613 -0.0062512835 0.07356266 0.23232092 0.27981055
-0.1765079 0.06557458 -0.13101543 -0.40748423 0.2127948 -0.23969777 -0.19072339 0.12484016
0.24265426 0.033159032 -0.09350972 0.09682854 0.2581954 -0.4944351 -0.18050922 0.07918249
-0.09741026 -0.03414596 0.54710895 0.24362251 -0.13820931 -0.19586018 0.15726404 0.07385056
0.3011271 -0.48106167 0.3463083 -0.24720897 0.10083899 -0.27320844 -0.12293867 -0.21099776
-0.1810778 -0.051936924 0.118617415 -0.26713872 0.04427761 0.02502699 0.26439056 -0.20725039
0.06555343 -0.23103642 0.27885368 0.07256832 -0.0180991 0.058308806 -0.12454434 0.014945867
-0.079076976 -0.015389693 0.25582814 -0.19609551 0.2312202 -0.030487021 -0.18501984 -0.14139004
-0.03695752 0.03508795 0.12031333 -0.18950641 -0.22494394 0.10892099 0.14904283 0.14024717
-0.04361115 -0.12003838 0.0536553 -0.21997954 0.26036984 -0.32273355 0.07996326 0.0207636
-0.0061683496 0.08478687 0.08189951 -0.3700044 0.14000712 0.12731463 -0.22059959 -0.18333682
-0.050319184 0.08136581 -0.3050099 -0.24956572 0.021927712 -0.221375 -0.10934056 0.08801953
0.26592216 -0.12866494 -0.21416539 0.21063949 0.22827053 0.20827249 0.022229616 0.23900391
0.09494094 0.09848442 -0.14953367 0.083268054 -0.20547064 0.0810181 -0.05582312 -0.12779269
-0.122335784 0.1287447 -0.03269671 -0.032715604 -0.27375776 0.07603707 0.18446897 0.27951446
-0.04446997 0.22491364 -0.15187103 -0.037863433 0.14557092 -0.038122986 -0.14898098 0.18417336
-0.05619788 0.030292733 0.0704498 -0.16880952 0.32229075 0.09466332 -0.19602062 0.08240377
-0.1365092 -0.18891545 -0.20915486 0.11140417 -0.015048249 0.027746277 0.05117091 0.044035282
0.1106387 -0.35708338 0.11628809 -0.22477323 -0.07149954 -0.19799232 0.055355586 -0.017180674
0.17837384 0.006427586 0.13031422 0.09267287 0.28937206 -0.21315895 0.14939247 -0.0860035
-0.11287075 0.019273303 0.12169412 0.19803554 0.00095519726 0.24890584 -0.140927 0.07632653
0.040995564 -0.09750254 -0.07142165 -0.10881427 0.11817069 0.14204468 0.14872426 0.07984747
0.10838833 0.37337974 0.0047960496 -0.00981368 0.33275697 -0.15942515 -0.19520146 0.046709668
-0.18489614 -0.23795941 0.36224693 0.3567556 0.29211518 0.27742016 -0.21532756 -0.00083843095
-0.0020747867 -0.16536266 -0.043670684 0.20874819 -0.10304551 0.035406325 0.060284585 -0.21288337
-0.055644672 -0.19442667 -0.18050125 -0.08714284 0.24096185 -0.023385365 -0.07839706 -0.30437553
00000000: 95c3 8c3e fc74 74be 7121 c6bc 9e03 343e
00000010: 8f6d 623c 0328 f2bd 58b2 c0bc b16c 1b3e
00000020: 605e 20be 4c5e 65be ef6a f43d c886 62be
00000030: b0d4 c3be 7724 6c3e a563 c8bc cb85 5cbe
00000040: f7fd 46bd eef1 65be 24e2 08be 5367 c93e
00000050: 25cf 31be bf92 eb3c b325 21be ec90 933d
00000060: 4f47 f5bd 0883 df3e b38e 79be 7c85 973e
00000070: 6040 733d 69a8 02be 5d42 373e 4150 113e
00000080: 6756 3fbe 4dbf eabc 2bc9 1b3e c1f5 88bd
00000090: 01cd 3fbd c5ce 80bc abba 293e 6803 803e
000000a0: 8293 62be a96f 9ebd 311c bb3e 0724 69be
000000b0: 9f1a 893d 708e 81be ea3b e6bd b0c5 893d
000000c0: b609 c93d 620f 093e a81e eabc 95d0 4a3e
000000d0: 91d7 ccbb 05a8 963d 89e5 6d3e 5443 8f3e
000000e0: 7dbe 34be f74b 863d e928 06be c6a1 d0be
000000f0: e1e6 593e 5573 75be fe4c 43be 33ac ff3d
00000100: 5c7a 783e c4d1 073d 0682 bfbd 0b4e c63d
00000110: 3032 843e 9926 fdbe 69d7 38be 6e2a a23d
00000120: 087f c7bd a2dc 0bbd 550f 0c3f 2e78 793e
00000130: be86 0dbe 928f 48be d309 213e f63e 973d
00000140: 552d 9a3e b74d f6be 524f b13e 5924 7dbe
00000150: ac84 ce3d fae1 8bbe 45c7 fbbd cc0f 58be
00000160: 756c 39be d0bb 54bd b0ed f23d 68c6 88be
00000170: 705c 353d 6705 cd3c 335e 873e 7239 54be
00000180: e040 863d d094 6cbe e9c5 8e3e b39e 943d
00000190: 9044 94bc 37d5 6e3d 1a11 ffbd 82df 743c
000001a0: 1cf3 a1bd 0d25 7cbc e8fb 823e 43cd 48be
000001b0: fdc4 6c3e ebbf f9bc d775 3dbe 8dc8 10be
000001c0: c560 17bd 62b8 0f3d d666 f63d f80d 42be
000001d0: b457 66be f811 df3d af9e 183e f49c 0f3e
000001e0: 9ba1 32bd afd6 f5bd a9c5 5b3d 5142 61be
000001f0: 324f 853e 553d a5be c7c3 a33d 6d18 aa3c
00000200: de1f cabb bda4 ad3d eeba a73d 3771 bdbe
00000210: 075e 0f3e c45e 023e dce4 61be a6bc 3bbe
00000220: 7d1b 4ebd 1ea3 a63d 422a 9cbe 288e 7fbe
00000230: bfa1 b33c 21b0 62be f2ed dfbd 9543 b43d
00000240: f326 883e bec0 03be 2c4e 5bbe e1b1 573e
00000250: c0bf 693e 6245 553e e21a b63c 71bd 743e
00000260: 6570 c23d 33b2 c93d 5b1f 19be 7188 aa3d
00000270: e566 52be d1ec a53d c9a6 64bd 16dc 02be
00000280: 2f8b fabd a7d5 033e fcec 05bd cc00 06bd
00000290: fa29 8cbe 53b9 9b3d 6fe5 3c3e 851c 8f3e
000002a0: 2526 36bd c34f 663e 1484 1bbe b016 1bbd
000002b0: 8b10 153e d926 1cbd 788e 18be f197 3c3e
000002c0: c02f 66bd 7728 f83c fc47 903d 67dc 2cbe
000002d0: 4b03 a53e d8de c13d a1b9 48be 4fc3 a83d
000002e0: 11c9 0bbe 0d73 41be b12c 56be df27 e43d
000002f0: ee8c 76bc 294c e33c 9798 513d 575e 343d
00000300: 8b96 e23d a2d3 b6be 7328 ee3d f42a 66be
00000310: 5a6e 92bd 80be 4abe 8abc 623d 7cbe 8cbc
00000320: a2a7 363e 809e d23b 1771 053e 46cb bd3d
00000330: 9328 943e 5746 5abe 57fa 183e 9a22 b0bd
00000340: c828 e7bd 0ce3 9d3c c43a f93d d4c9 4a3e
00000350: 3466 7a3a 2ce1 7e3e 2b4f 10be 1551 9c3d
00000360: f7ea 273d 69af c7bd 8445 92bd 04da debd
00000370: 7a03 f23d 2974 113e 2c4b 183e 1287 a33d
00000380: b3fa dd3d a12b bf3e 2e28 9d3b 8fc9 20bc
00000390: 1f5f aa3e 5940 23be e4e2 47be a352 3f3d
000003a0: 6a55 3dbe a2ab 73be 6e78 b93e aca8 b63e
000003b0: 1f90 953e 040a 8e3e d47e 5cbe 26ca 5bba
000003c0: 25f9 07bb d454 29be 08e0 32bd 16c2 553e
000003d0: 8609 d3bd 3906 113d f8ec 763d 19fe 59be
000003e0: abeb 63bd c917 47be 52d5 38be f277 b2bd
000003f0: b4be 763e aa92 bfbc a38e a0bd 1cd7 9bbe

2.bias f4 [512]
0.051655162 0.06767805 -0.050396513 -0.08745574 -0.012822265 -0.0061890967 0.054483473 -0.07371311
-0.050070904 0.015589567 0.069101095 -0.07596294 -0.013671958 -0.096418865 0.016973909 0.18558945
-0.024823261 -0.006233725 -0.074970216 -0.122652695 -0.07142808 -0.05985145 -0.018783381 -0.012637708
-0.007144123 -0.04108702 -0.0939654 0.14508735 0.056838844 -0.030434381 0.083828166 0.0044533014
0.041835863 0.12944081 -0.110100925 -0.029365864 -0.005715514 -0.02945273 -0.07112415 0.07352195
0.053528026 0.008295742 0.04175289 -0.10141534 0.035395216 -0.06128729 0.03935137 -0.010759294
0.054672126 -0.042157687 0.057560924 0.10053884 -0.0653297 0.08224809 -0.013201904 -0.0021212597
0.056122612 0.089839764 -0.064431876 0.066982456 -0.10454532 0.07174209 -0.018267302 -0.124240026
0.0124513 0.1270508 0.021583855 -0.09730764 -0.10226796 0.07226277 -0.07546881 -0.0887628
-0.04444058 -0.059967015 0.0896688 0.15012501 0.022682272 0.020423252 -0.025573097 0.037058808
0.03009952 0.06777051 0.05236928 -0.0742617 -0.03792138 -0.07395673 0.0011616042 -0.06676988
0.053080022 0.022718774 0.034817096 -0.044571705 -0.11555584 0.015178771 -0.013323094 -0.018869625
0.006536309 -0.02725686 0.019845324 0.043497548 0.04837051 -0.073603936 0.062235154 -0.10880589
0.16684093 0.13896643 0.014261109 -9.072047e-05 0.1586279 0.032105096 0.028775949 0.060878914
0.09535535 -0.0386745 -0.052942954 -0.069140375 0.0394706 0.009744246 -0.10641493 0.06902762
-0.11131921 0.036864325 -0.078570955 -0.031758234 -0.034825604 -0.07897494 -0.032616418 -0.10270503
0.10569013 0.0067812176 0.041624665 0.10626287 -0.063023925 -0.014816977 -0.047027834 -0.03351116
-0.0030537501 0.0641248 0.090090156 0.01044695 -0.05710894 -0.027897295 -0.029209433 0.06536874
-0.059051733 0.064488634 -0.11320707 -0.006072228 0.04237514 0.078338966 0.12685557 0.0061837966
0.12820812 -0.008435108 -0.027342355 0.026822573 0.010355423 0.09014069 -0.07997114 0.09457465
0.04318991 -0.038714916 0.10930383 -0.04529314 0.07454501 0.024189088 0.0051530874 -0.024547985
-0.03586632 0.049399875 -0.09800701 0.14107089 -0.016774744 -0.0029583056 0.02774996 0.018132938
-0.10128261 -0.15872641 -0.044058144 -0.07993899 0.17897126 0.027761668 0.045370847 0.03377611
-0.07266659 -0.003760099 0.0028244625 0.008802249 0.12528312 -0.07185788 0.11526432 0.06709278
0.0005004325 -0.004515713 -0.025439613 -0.06817544 0.07414524 -0.08206134 -0.08829918 0.00051947124
-0.010264092 0.005298712 -0.013086231 -0.006032384 0.073055215 0.0033290072 0.016672427 -0.07317161
-0.011010419 -0.015473882 0.12885718 -0.057678368 -0.07112621 0.08435912 0.21993557 0.0630696
0.018709691 -0.048743434 0.026529023 0.040354334 -0.08187094 0.01167023 -0.0527066 0.030444989
0.034664545 0.02188603 0.079878 0.020992849 -0.043378692 -0.093291394 -0.15762784 0.0870935
-0.06947228 -0.045284193 -0.0032632262 0.07072579 -0.02114844 -0.018678686 0.12787268 0.008199964
-0.005748996 -0.18519683 0.044575397 -0.0034664972 -0.11705625 -0.059085477 -0.0851126 -0.014302341
0.010687971 -0.0651082 0.042523753 -0.0048203077 -0.074082874 -0.07491406 0.026027251 -0.0104082255
00000000: 5d94 533d ca9a 8a3d 936c 4ebd ff1b b3bd
00000010: 7a14 52bc e8cd cabb 102a 5f3d e6f6 96bd
00000020: 2617 4dbd 626b 7f3c e084 8d3d 7592 9bbd
00000030: 5900 60bc 4177 c5bd de0c 8b3c 290b 3e3e
00000040: 275a cbbc 4744 ccbb fc89 99bd 5631 fbbd
00000050: e348 92bd cb26 75bd 9bdf 99bc 640e 4fbc
00000060: 3f19 eabb dd4a 28bd ee70 c0bd c791 143e
00000070: d9cf 683d 8651 f9bc 1aae ab3d 00ed 913b
00000080: 155c 2b3d 228c 043e 987c e1bd ae90 f0bc
00000090: 3549 bbbb da46 f1bc 8aa9 91bd ad92 963d
000000a0: 3440 5b3d ddea 073c 1405 2b3d d9b2 cfbd
000000b0: 93fa 103d 6208 7bbd e72e 213d c047 30bc
000000c0: e1ef 5f3d 8aad 2cbd 01c5 6b3d 4fe7 cd3d
000000d0: 94cb 85bd b071 a83d cc4c 58bc d504 0bbb
000000e0: d3e0 653d e9fd b73d dcf4 83bd 192e 893d
000000f0: db1b d6bd 84ed 923d 4fa5 95bc 8e71 febd
00000100: 8a00 4c3c 9b19 023e a0d0 b03c 3a49 c7bd
00000110: dd71 d1bd 81fe 933d 648f 9abd 45c9 b5bd
00000120: 5307 36bd f99f 75bd 47a4 b73d 5fba 193e
00000130: 2cd0 b93c aa4e a73c ac7e d1bc faca 173d
00000140: 4593 f63c 44cb 8a3d 2c81 563d 8516 98bd
00000150: 7353 1bbd a076 97bd f840 983a a6be 88bd
00000160: 706a 593d b91c ba3c 5f9c 0e3d d290 36bd
00000170: 8aa8 ecbd 61b0 783c 1b49 5abc 7994 9abc
00000180: 892e d63b c749 dfbc a992 a23c 7c2a 323d
00000190: 2820 463d a9bd 96bd 4aea 7e3d 9fd5 debd
000001a0: 59d8 2a3e 374d 0e3e 6da7 693c 2e41 beb8
000001b0: 5a6f 223e a280 033d 8abb eb3c 2b5c 793d
000001c0: aa49 c33d 2769 1ebd b6da 58bd 7899 8dbd
000001d0: edab 213d 54a6 1f3c 12f0 d9bd 5a5e 8d3d
000001e0: 53fb e3bd 0cff 163d cfe9 a0bd ec14 02bd
000001f0: 4ba5 0ebd 9dbd a1bd cb98 05bd 0457 d2bd
00000200: 1174 d83d fa34 de3b a07e 2a3d 59a0 d93d
00000210: b012 81bd e8c2 72bc 42a0 40bd 0043 09bd
00000220: 6d21 48bb dd53 833d 3081 b83d af29 2b3c
00000230: 10eb 69bd de88 e4bc 9f48 efbc 0ce0 853d
00000240: 3be0 71bd 9e12 843d 1cd9 e7bd 8af9 c6bb
00000250: 8e91 2d3d 2e70 a03d 6de6 013e 72a1 ca3b
00000260: fd48 033e 6833 0abc 13fd dfbc 03bb db3c
00000270: cba9 293c af9b b83d e9c7 a3bd 5bb0 c13d
00000280: e7e7 303d 8893 1ebd b0da df3d 4d85 39bd
00000290: 0eab 983d 3228 c63c 3bdb a83b db18 c9bc
000002a0: 90e8 12bd 8657 4a3d e6b7 c8bd e374 103e
000002b0: 306b 89bc 22e0 41bb e253 e33c 878b 943c
000002c0: 426d cfbd 2d89 22be 5076 34bd 0eb7 a3bd
000002d0: 3e44 373e 706c e33c c8d6 393d d158 0a3d
000002e0: 39d2 94bd fe6b 76bb 9e1a 393b 4f37 103c
000002f0: 384a 003e 392a 93bd b30f ec3d f067 893d
00000300: 752f 033a 8cf8 93bb bc66 d0bc 919f 8bbd
00000310: 76d9 973d c70f a8bd 33d6 b4bd 202d 083a
00000320: b92a 28bc d1a0 ad3b a267 56bc 4eab c5bb
00000330: f99d 953d 792b 5a3b 9d94 883c ffda 95bd
00000340: 0b65 34bc 2a86 7dbc 23f3 033e 2740 6cbd
00000350: 9eaa 91bd 79c4 ac3d ca36 613e a22a 813d
00000360: 1145 993c 32a7 47bd 6553 d93c 964a 253d
00000370: f4ab a7bd 7e34 3f3c e0e2 57bd c567 f93c
00000380: 69fc 0d3d 554a b33c 1497 a33d 32f9 ab3c
00000390: dbad 31bd 8f0f bfbd 3169 21be 145e b23d
000003a0: 7c47 8ebd eb7b 39bd dadb 55bb afd8 903d
000003b0: 7e3f adbc 0b04 99bc 0ef1 023e 2459 063c
000003c0: 1362 bcbb 3da4 3dbe b194 363d 2c2e 63bb
000003d0: 30bb efbd 9d03 72bd 844f aebd 5e54 6abc
000003e0: 991c 2f3c 7357 85bd 632d 2e3d acf3 9dbb
000003f0: c3b8 97bd 8b6c 99bd 1a37 d53c 4387 2abc
