Preprocessing/embedding_pretrained_weights.pt (torch, 111375 bytes, 4 tensors)

0.weight f4 [50, 25]
00000000: af70 bf3e e789 24bf 78dc 713e 62e5 8bbf
00000010: abd3 3dbf 7069 243f 859a 623e bfbc c53e
00000020: dd75 8a3f e165 dbbe 0222 6c3e 8499 13bf
00000030: 4afa 81be 3430 3cbf 7e20 9e3e 26f7 d0be
00000040: 5b6f c33d da46 8a3c 051c 1ebd 8f5a d5be
00000050: 2fb2 e53d e757 cebe b5ce 04be 2054 5fbc
00000060: ec00 0f3e f4da 273e b886 113f 48e5 633f
00000070: 8f22 a33e 6abc 37be 420b 42bf ae6e f73d
00000080: 79ca 14bc 8141 133f d18c a33b b365 6f3f
00000090: 197a 093f d1af 14bf 3715 523f c8e2 c0be
000000a0: 153b 90bf c982 7f3e 74fd 013f 9397 3a3f
000000b0: fa6b 6bbe 0bca 283d 9ae8 14be 02a3 ae3d
000000c0: 7a9f 923d 6f39 c5bd 7001 edbe c69b 7dbd
000000d0: 6014 2abf efa5 8f3e 8035 843d 5973 0fbe
000000e0: 9cab 0c3f 2997 bc3f f702 39bf de05 b0bd
000000f0: 32a7 38bf 22cc bd3e b4c5 c13d 3a8b 3b3f
00000100: fc6b a1bd e6cd 45be 853f adbe 03bb 9f3e
00000110: 2f2f 073e b665 713e 1865 80be f23b ec3d
00000120: 5cd0 80bd 9831 ca3c 4771 383f c74f 70be
00000130: e555 7c3f dc37 08bf eea6 9ebe 0f40 84be
00000140: 6137 aa3e 4faf 0d3e ec6f d1bf fe7d 93bf
00000150: 95fd 7a3d 65cc d1bd bda0 483f c711 5d3e
00000160: 0608 d33c 50c0 c43d 007f 2dbf 7837 323f
00000170: 9d73 e5be 62e7 e03e 75a2 4cbe 5e98 67bf
00000180: 6535 b03c 78bc 39bd 3037 56bc 91ab 7ebf
00000190: 9fdd 5ebf bb1c 28bf 8ab0 e1be dac3 523d
000001a0: ebc8 043f 9f75 50be ecfb 37be 56c4 3d3f
000001b0: 456d 9c3f 8082 a7be 0c6d 893e 019b 853e
000001c0: 37ee f7be 5edd 893e ad0e 453f 4d59 d7be
000001d0: 4b10 d3be e898 18be 227f 1b3f 7a1c 78be
000001e0: cfcb 64bd 860f c5bd 641c 533d a098 5fbd
000001f0: 8701 67bf 0eb8 bdbe 9514 4fbe 3800 18bf
00000200: 0ca8 39bf cbd9 3b3f a350 2cbf bf34 573e
00000210: e6fd cd3e adbe 943f c5d7 833e 4ae0 8bbe
00000220: 485e ab3c 9afa eabe 60ea b3bf 8e97 ecbd
00000230: 335c 12be 32e3 093f 95a2 44bf bd9a cd3e
00000240: aa9d 353e c9f6 363d 2b65 933e 8af5 8dbd
00000250: b1dd 173e 6dd1 a6bd f6b6 63be edc4 a53e
00000260: 0f54 4abe db66 61be 2ab4 043f c5f8 1b3f
00000270: e1a2 d3bd df20 d33f 6f89 4fbf db4f fdbd
00000280: c439 a13e a79d 3f3f af60 2dbe bdbc 0b3f
00000290: 4770 53bf 63fb fa3e 2cc9 94be f460 3a3e
000002a0: 0a58 ccbe bde1 febd 2a00 913f 7782 083c
000002b0: 17c1 cfbd e796 333e 3dbb f83d 327d 123f
000002c0: ebeb 28bf f1a9 393f f877 aa3d 451c 1e3e
000002d0: be18 1fbf e7c1 44bf d126 003f 9cd4 f53b
000002e0: 5809 f6bd c24c dbbd e7be d03e 2d7c c93e
000002f0: a43a 72bf 1717 e3be 1188 4bbf c2da 33bf
00000300: 7cd4 10bf 4799 4a3e 02ff b73d 958b 21bf
00000310: da02 c43d 174f a2bd f8b6 00bd 9a77 0f3f
00000320: aafa 913d ad76 dabe 58e9 853e 9c09 87be
00000330: e09e fb3e e9a4 1fbe be84 8d3e 1d68 723f
00000340: 5a37 6fbe cde4 6dbe 94cb 9bbe 8bd5 56be
00000350: 70ea 0c3f 99bd b8be 1fe9 353e 3b36 3fbf
00000360: 0e4e d23e 0f20 3a3f f51d 73be 27e7 37be
00000370: e0f9 8f3f c72f 3abe ed89 303e 3df8 39be
00000380: 5c1f 26bf 16b8 b93e 23ed 283f 24fd 43be
00000390: 725b 7b3e 8238 2a3e 4c1c 643e b703 fc3e
000003a0: 966d 98bf b73d 7c3f 0419 a53e 6f97 09be
000003b0: 46d2 833f 60e7 853e 36a5 0c3f 7361 133f
000003c0: 78cb 07bf 5f8b 86be 2027 68bf 7d55 183f
000003d0: 3501 203d 1218 35bd ce26 a83e f9e4 313e
000003e0: 80aa e63c ce12 c2bd a3e1 28bf 5c44 c73e
000003f0: abbf 31bf ede7 3c3f da11 febe 9c07 353e
0.37390658 -0.6427292 0.23619258 -1.0929377 -0.74151105 0.64223385 0.22129257 0.38620564
1.0817219 -0.42851165 0.23059848 -0.5765612 -0.25386268 -0.7351105 0.30884165 -0.4081356
0.09542724 0.016879488 -0.03860094 -0.41670653 0.112156264 -0.4030144 -0.12969477 -0.013630897
0.13965195 0.16392118 0.5684619 0.8902173 0.31862304 -0.17942968 -0.7579843 0.12081657
-0.009081476 0.57521826 0.004991152 0.93514556 0.5370193 -0.58080775 0.8206362 -0.3767302
-1.126803 0.24952234 0.50777364 0.72887534 -0.22990409 0.04120831 -0.14541855 0.08527185
0.07159324 -0.09630095 -0.4629016 -0.061916135 -0.6643734 0.28056285 0.06455517 -0.14008845
0.54949355 1.473363 -0.7227015 -0.08594869 -0.7213012 0.37069803 0.09461537 0.7325932
-0.078819245 -0.19316825 -0.33837524 0.31197366 0.13201593 0.23573956 -0.25077128 0.11534871
-0.062897414 0.024681851 0.7204785 -0.23467933 0.98568565 -0.53210235 -0.30986732 -0.25830123
0.33245376 0.13836406 -1.6362281 -1.1522825 0.06127699 -0.10244063 0.7837027 0.21588813
0.025760662 0.09606993 -0.6777191 0.6961589 -0.44814768 0.4392653 -0.19983847 -0.9046687
0.021509835 -0.045345753 -0.013074681 -0.9948054 -0.87056917 -0.6566884 -0.4408 0.05145631
0.51869076 -0.20357369 -0.17967194 0.7412771 1.2220846 -0.3271675 0.2684101 0.2609482
-0.4842393 0.26926702 0.7697552 -0.4206032 -0.41223368 -0.14902079 0.60740864 -0.24229613
-0.05585843 -0.096221015 0.051540747 -0.054588914 -0.90236706 -0.37054485 -0.20222695 -0.59375334
-0.72522044 0.733792 -0.6731054 0.21016215 0.40232772 1.162069 0.25750557 -0.27319556
0.02091898 -0.4589432 -1.40559 -0.11552344 -0.14292984 0.538623 -0.7681058 0.40157118
0.17735925 0.044668946 0.28788123 -0.069315985 0.14830662 -0.081454135 -0.22237763 0.32376805
-0.19758628 -0.22011892 0.5183741 0.6092647 -0.10333801 1.6494406 -0.8106908 -0.12368747
0.31489384 0.74849933 -0.16931413 0.54584867 -0.82593197 0.49019918 -0.29059732 0.18201047
-0.39910918 -0.124454 1.1328175 0.0083318865 -0.10144251 0.17538033 0.12145088 0.5722228
-0.6598498 0.72524935 0.083236635 0.15440471 -0.6214713 -0.7685837 0.5005923 0.0075021517
-0.12013501 -0.10708 0.40770647 0.3935255 -0.9462073 -0.44353554 -0.79504496 -0.7025567
-0.56574225 0.19785033 0.08984186 -0.6310361 0.095708564 -0.079252414 -0.031424493 0.5604187
0.071278885 -0.42668667 0.2615459 -0.2637452 0.4914465 -0.15590252 0.27640337 0.94690114
-0.23360959 -0.23231812 -0.30428755 -0.20979898 0.55045223 -0.36082152 0.1776471 -0.74692124
0.41075176 0.7270517 -0.23741896 -0.17959271 1.1248131 -0.18182288 0.17240115 -0.18161102
-0.648916 0.3627326 0.6598684 -0.19139534 0.24546602 0.16623119 0.2227642 0.49221584
-1.1908443 0.9853167 0.32245648 -0.13436674 1.0298545 0.26153088 0.5493959 0.5757057
-0.53044844 -0.26278207 -0.906847 0.59505445 0.03906365 -0.04421241 0.32842106 0.17372502
0.028157473 -0.09476243 -0.65969294 0.38919342 -0.6943309 0.7379139 -0.49622995 0.17678684

0.bias f4 [50]
00000000: 04af 9bbd 417c c3be f819 e33d 1ce8 0f3e
00000010: d45e 1abe ba9c 223f 0d51 0abf 1c31 a9be
00000020: 589a c9bd 9518 8fbe f206 9cbe bfbf 843c
00000030: f01c 24bf 5425 abbe e25e 8f3e ae76 663d
00000040: fc2e 8bbe 5a4e e0be 0814 093e dbe4 1abf
00000050: cd09 043f 1ed0 863e f267 df3d f90b ff3e
00000060: 97ee 8cbd 770b 04be 287a 6a3e 4a1c 08bf
00000070: 62ff 803e 6609 8cbd 7a7f b03d 957c cc3e
00000080: f911 e7bd 6cc5 143e 12e9 cdbe 8207 67be
00000090: 7fd9 40bd 060a a63e 55ea 8cbe 3330 e3bb
000000a0: e00e b23e 2ba8 eb3e 0bae 223e be4d 37bf
000000b0: 038f 543c 8e11 08bf b053 bebd 6f0f fe3e
000000c0: c6d3 0b3f 4c06 12bd
-0.07601741 -0.38180736 0.110889375 0.14053386 -0.15075237 0.63520396 -0.54029924 -0.3304528
-0.09843892 -0.27948442 -0.3047405 0.016204713 -0.64106655 -0.33426917 0.28002077 0.056265526
-0.27184284 -0.43809777 0.13386548 -0.60505456 0.51577455 0.26330656 0.10908498 0.49813822
-0.06881445 -0.12894998 0.22898161 -0.53168166 0.25194842 -0.0683773 0.08618064 0.399388
-0.11282725 0.14528435 -0.4021688 -0.22561458 -0.04708242 0.32429522 -0.2752253 -0.006933236
0.34776974 0.4602674 0.15886705 -0.71603 0.01297355 -0.53151786 -0.09293306 0.4962115
0.54620016 -0.035650536

2.weight f4 [512, 50]
00000000: d9e1 8dbe fb79 513d 1364 2dbe 4b1a 9abe
00000010: 2540 15bf 8aa4 513e 7e75 1f3d 1df4 26be
00000020: fdc7 9ebd ea9b b83e 9f84 383f cc0f f4bc
00000030: 7fb2 f03e 0c22 37bf 4eee 7f3e 7c80 a4be
00000040: bdd5 a53d ed13 ac3e 2559 f0be f023 803e
00000050: 8d9a c6be e835 87be 98b8 b63e 2e48 10be
00000060: 7db6 d03e ecff 0bbe aeb9 e53e e29e 87be
00000070: 4806 e3be c545 0f3f 8182 e43e 08ac c9be
00000080: 78a6 a03d 2743 debd 8f6d d2bd 1dc7 8bbe
00000090: e8a4 43bf 80a3 65bd daed d83d 7e52 b4be
000000a0: 18d7 34bd 6c10 d3bd b7fa adbd d58f 513e
000000b0: bbc9 013f 57b4 2e3c 764a a4be 11cf a0be
000000c0: 0166 c33e 4b9a c83e 8275 173e 53d8 1b3e
000000d0: 635c 7e3e f877 b2be 90f8 763e f883 e53c
000000e0: 9954 efbe dba3 463d 11cc 073e 7a2f ddbe
000000f0: 149d 94bd cbfe aebd 017a 2fbe b690 03be
00000100: 11e1 82be 1234 bfbe ddb2 d1bd 2820 323d
00000110: aca0 3fbe ec08 92bb e3e6 d0be 1321 88be
00000120: cb6b 21bb 90b3 1c3f f49d cf3e 3318 323e
00000130: 78b0 ff3e e6dd 66be 781c ffbd b4bb fdbe
00000140: 0904 b33d 2ff5 833e 3c68 5dbe 3f47 e43d
00000150: 0c8f 1c3f 49e7 99be 9cf4 063e 0f85 edbd
00000160: 449f b33c e65a 343e 0271 b23e 2aa1 abbe
00000170: fd0b a3bd 7294 c13e b9b7 5c3d c84e 35bd
00000180: b8fe b4bb c0ee a63d ea65 11be f52e b43d
00000190: f69f 063f fa89 b4bd 6d56 a13d 3a7c cc3e
000001a0: 3fd4 893d f06a fabd 153a 08be f9c5 77be
000001b0: 4318 ac3e fdc6 8abe 4bb3 153f e2c4 583e
000001c0: 97e2 883e afb6 ed3d ba40 3dbd 2b22 783e
000001d0: 2ddf 36be 82bb 533e f281 533e 481a 0f3f
000001e0: fb7d 833d e7b7 633e 8b48 0c3f 502e 1b3e
000001f0: cfd7 bebd bff3 483d b99b a9be c2cf 15be
00000200: 72f3 9e3e 5295 a93e ef1a c23d 366f 21bd
00000210: c960 983e af1b 7dbe 6abe a7bd 9c15 88be
00000220: 024f 24be fb63 973e 0337 073e f42c 46bf
00000230: 8ba3 d4be b747 c83e 18e1 3c3e aa1d 9abb
00000240: e7f8 a6bd fbb3 973d 234d b0bd 18cf 4fbd
00000250: 8822 03be 7bcc e8be 7534 cb3e 16fa 7d3f
00000260: 8252 f53d 6a63 e13d cb2a eabe 61cd 50bc
00000270: ddfc 143f 30a4 e53c 1f2b e9bd 8695 0cbe
00000280: dd3a 683d ff0b 193d 2d87 d13c ef64 5ebe
00000290: c9a1 aa3d 1e1a 02bd 3b8e 94be bf92 0f3e
000002a0: 9ede 0bbf 199e 7cbe 6ebc 11be baff c03d
000002b0: 86c6 a2be 8f4a 9cbe 3e29 57be a081 85be
000002c0: cbb1 06bf 894c 033e c838 ea3e 4f3f e9be
000002d0: 68db c2be f70c b13d 2e34 e73e f175 27be
000002e0: 2407 c43d 4292 b5be 6303 ea3d 03ac 283e
000002f0: 3748 23be 15ac 80be a898 de3d c41c d13e
00000300: c3d6 a83c 3ec6 0fbf 3418 efbe b779 0dbf
00000310: 8b07 0a3f 669a bb3e 521a eebe b839 e7bc
00000320: 7aa6 313e d34b 00bf 1359 95bd 51a5 2e3d
00000330: 3632 d43e 00d5 23be aeb6 09be e0e0 e73d
00000340: 6447 2b3f 819b c33e 54a7 7d3d 251c 21be
00000350: d1e1 79be b07b 66be 66d5 a4be cb72 a53e
00000360: efc1 b9be c52a cbbe 8e1b e83d 5d79 ca3e
00000370: 6f75 37be 6732 b6bd f963 13bd d807 163e
00000380: 028e 1c3d 8dc9 55bd 8871 0cbf 6fde 26be
00000390: 5a2f bc3e 08e9 1e3c ca70 27bc ab4f 02be
000003a0: c43b 0bbe f9fb 35bd 636d 9cbe 88bf 643d
000003b0: 20ed 2bbe cd64 f7bd b8b4 9b3e 4f5c a4be
000003c0: 43b7 013f 6706 b5be a44c c7be 0543 a1bd
000003d0: 2b76 92be 7ae2 f2be 25c2 93be 8c6a 8e3e
000003e0: ed3f 4dbe 6f0d 89be 304b 60be eba3 073b
000003f0: 28a4 77bd fdfb 873e 7d36 293e 246e d43c
-0.2771137 0.05114172 -0.16932707 -0.30098185 -0.58301 0.20472923 0.03893041 -0.1630406
-0.077529885 0.36056453 0.72077364 -0.029792689 0.47011182 -0.71536326 0.2499325 -0.32129276
0.08097408 0.33608952 -0.46943012 0.25027418 -0.38789788 -0.26408315 0.3568771 -0.14090034
0.40764228 -0.13671845 0.44868225 -0.26488405 -0.4434073 0.55965835 0.44630817 -0.39389062
0.078442514 -0.10852652 -0.10274803 -0.2730035 -0.764235 -0.05606413 0.105922416 -0.35219187
-0.044150442 -0.103058666 -0.08495086 0.20465024 0.5069844 0.010663114 -0.3208806 -0.3140798
0.3816376 0.39180216 0.1479092 0.1521924 0.2483993 -0.34857154 0.24118257 0.02801703
-0.4674423 0.04849611 0.13261439 -0.43200284 -0.07256523 -0.08544692 -0.17136385 -0.12848172
-0.25562337 -0.37344414 -0.102391936 0.043487698 -0.18713635 -0.00445663 -0.40801153 -0.26587734
-0.00246309 0.6121149 0.40550196 0.17392044 0.49939322 -0.22545585 -0.12456602 -0.4955727
0.08741004 0.25772998 -0.21621794 0.111464016 0.6115577 -0.3005927 0.13179249 -0.115976445
0.02192653 0.176128 0.34851843 -0.33521396 -0.07961271 0.37808567 0.05388615 -0.044264585
-0.005523529 0.08151007 -0.14199033 0.08798019 0.5258783 -0.088153794 0.078778125 0.39938527
0.06729936 -0.12227428 -0.13303407 -0.24196614 0.3361226 -0.2710494 0.58476704 0.21168855
0.26735374 0.1160711 -0.046204306 0.24231784 -0.17858572 0.20676997 0.20655039 0.55899477
0.06420513 0.22238122 0.5479819 0.15154386 -0.09318506 0.04906058 -0.3312662 -0.14630035
0.3104511 0.33121735 0.094777934 -0.0394127 0.2976134 -0.24717592 -0.081906155 -0.26578987
-0.16045764 0.29568467 0.13204579 -0.77412343 -0.41531023 0.39117214 0.18445241 -0.0047032433
-0.08152943 0.074073754 -0.08608463 -0.05073461 -0.12806141 -0.45468506 0.3968846 0.99209726
0.11978628 0.1100529 -0.45735773 -0.012744279 0.5819834 0.028032392 -0.11385178 -0.13728914
0.05669676 0.037364956 0.025577152 -0.2171819 0.08331639 -0.03176319 -0.29014763 0.14020823
-0.5463656 -0.24669684 -0.14232036 0.09423776 -0.31792086 -0.30525634 -0.21011826 -0.2607546
-0.5261504 0.12822165 0.45746446 -0.45556113 -0.3805802 0.08645051 0.45156997 -0.16353585
0.095716745 -0.35463148 0.11426427 0.16471867 -0.15945517 -0.25131288 0.108689606 0.4084226
0.020610219 -0.5616187 -0.46698153 -0.5526385 0.5391776 0.36641234 -0.46504456 -0.028225765
0.17348662 -0.501157 -0.0729238 0.042638127 0.41444558 -0.15999222 -0.13448593 0.113221884
0.6690581 0.38204578 0.061927155 -0.15733393 -0.24402548 -0.2250812 -0.3219406 0.32314143
-0.36280772 -0.39681068 0.11333381 0.39545718 -0.17915891 -0.08896332 -0.035984013 0.1465143
0.038221367 -0.052194167 -0.54860735 -0.16295789 0.36754876 0.009699114 -0.010219762 -0.12725703
-0.13597018 -0.044429753 -0.30552205 0.05584672 -0.16789675 -0.12079773 0.30411315 -0.32101676
0.5067026 -0.35356447 -0.3892566 -0.07874111 -0.2860578 -0.47438413 -0.28859058 0.27815664
-0.20043917 -0.26768062 -0.21903682 0.0020697068 -0.060459286 0.2655944 0.16524692 0.025931425

2.bias f4 [512]
00000000: 939e 86bd 1791 babd 0135 35bd 97b7 563d
00000010: 3226 bcbd f28d eabd 2e51 f6bc 8552 05be
00000020: a12b 24bd c998 e7bd 04db b1bc 5cf8 5dbe
00000030: 5c92 c73d da96 84be e8a3 e83d ff26 2d3e
00000040: 66c8 913e de19 8ebd 7db2 903d 0de0 95be
00000050: f727 293e 3927 fc3d 5a17 f43d a381 9d3e
00000060: 0e98 143e 4c8d 283d 22f2 8abd a29c e5bc
00000070: 9ffb cf3e f652 a2be 5474 643c 51c4 823d
00000080: 552d 8a3b 53b1 bf3e acaa 25be e2b7 343e
00000090: c040 42be 701f 20be a95a cdbd 6cdc bd3c
000000a0: 636d 673e c468 e0bd 0404 8f3e 5314 14be
000000b0: 0460 893d 5c56 53bd 1544 57bd 2745 86bd
000000c0: 2166 0bbe abdf f03d 7ef1 863e fb6f 203d
000000d0: 6274 1ebe 9dbe d33d 63fd 313e 7c64 82be
000000e0: d508 09be 5fe9 113e 1c71 813d 391b 8c3e
000000f0: 7e08 99ba 3f1e c93d 014b 06be 2502 9b3d
00000100: 9369 cb3c 89a8 973d f221 90bd ac16 18bd
00000110: af69 13bd 8bd3 3c3d 2f98 efbc aa67 a73d
00000120: 9274 3ebe d6d8 8dbd 3888 f73d 16d5 a43e
00000130: 0d68 803d 84be 8a3c d2ee 393e 09a5 35be
00000140: b910 fabd 208c 09be 813a 4d3e 3006 ffbd
00000150: 583f e6bd 90f6 36be 914f 4f3c 7452 8d3e
00000160: a467 b63c f2f4 02bc 9300 423e c89e 433e
00000170: 4c84 32be 545b 5b3e d096 fb3d c5d0 8c3e
00000180: b070 293e 9460 07bc 4890 4dbe 58b8 883d
00000190: 49ba af3d 0bce 16bd 3e96 583e 7935 c93c
000001a0: df9f 7a3e aa47 31bc 7be3 12bd 3028 f1bd
000001b0: 6479 8b3e 1dbc b43d 4243 963e e597 aa39
000001c0: 6449 ffbd 4737 e73d 9754 a0bd d0e5 cc3d
000001d0: 61d5 413e 670d 113e 5386 83be d500 ec3e
000001e0: 31f4 a8bd c754 d33d ca13 37be 55a4 fa3d
000001f0: 9809 c3bd 2ec8 f43b c0fa 203d a493 45be
00000200: 0169 c83d d97d b73d 6e5f d43d 45ae 793d
00000210: db58 003e 7088 093e dab1 a2be 0b36 3c3e
00000220: 5dc3 523c b180 a23e 8bdb 943e 3f1e 84be
00000230: 07b5 35bc c60c eabd b57f b3be f558 833e
00000240: 20cc 6d3d a1e4 463e 9ad2 d73c dbf7 4b3d
00000250: 1664 ac3e 87c5 4f3e 45b4 8b3e 0dfb b03d
00000260: f0cb 44bb 14d6 2ebd 9bf8 dcbd 71b6 8abd
00000270: 4706 333d 812c 5c3e 3ed4 7ebe 6a52 263e
00000280: b65c 75bd 88a4 46bd 0177 403e ce98 50bd
00000290: f740 42bc 8595 a7be 7f96 ac3c 1e57 73bd
000002a0: 15d5 ca3d 725d debd 97bf d9bd 8656 8d3e
000002b0: c5cc 61be 3955 223e 5ad6 d23d 6f06 353d
000002c0: 0cc0 8abd 9fcb 07be 9d0a 30be 6985 e8be
000002d0: 40e2 f83d f58d 40be d8a8 3fbd 94c9 afbd
000002e0: da90 a03c ce3f 2a3d 5c4e 043d 4eca a73d
000002f0: 7065 3d3e b02f cbbe eb12 df3d 8409 d4bd
00000300: b9ad 833e 203b 3fbe d8ae 5a3e 0983 bd3d
00000310: 41df 1b3e 5224 59be 6713 61be 8e5c 623e
00000320: f6f7 0f3e ba93 6fbe 3b37 2a3c 89c1 0b3e
00000330: 104f cc3e 5a7a 51be 2af0 6e3d 4f5e 87be
00000340: 0f93 1c3e 65e4 643d 13b3 6c3e c539 2b3d
00000350: 7eea d83d 830a 0a3e 9854 ea3e 751c 473e
00000360: 02fb cebd 2b97 57be f4ab 0a3e e42e 4bbd
00000370: c2c2 143d e629 803d 6552 e23d c979 37be
00000380: 98ff 90bd de4d b3bd b5c1 84be 35f6 6cbe
00000390: b970 7cbe 169f 90bd 3e19 e13c 047a 2b3d
000003a0: 421a c7bd 32e8 1ebe 7c22 0abe 46b7 d8bc
000003b0: ae35 76bd 71bc 3ebc 4e63 b43c 4f26 93be
000003c0: cd3b c23e 7f85 b3bc 371c 92bd ce06 cd3d
000003d0: 0be7 563b 92f9 b3bd 1e86 c83d 2b60 e23b
000003e0: 1b76 4ebc 267b e0bd f456 4fbd 88f6 aabd
000003f0: ab0f 40bc 6577 7cbe 47c7 4dbe 9796 34be
-0.065732144 -0.09109705 -0.04424 0.05242118 -0.09186973 -0.11452855 -0.030068006 -0.1301976
-0.04008067 -0.11308438 -0.02171088 -0.21676773 0.09744713 -0.2589634 0.11359388 0.16909407
0.28473204 -0.069385275 0.07065294 -0.292725 0.16519152 0.12312169 0.119185165 0.30762967
0.1451113 0.041150376 -0.067844644 -0.02802879 0.4062166 -0.3170392 0.01394375 0.06385101
0.00421683 0.37439975 -0.16178387 0.1764827 -0.18970013 -0.15636992 -0.10027058 0.023176394
0.22600321 -0.109574825 0.2793275 -0.14460878 0.06707767 -0.05159603 -0.052555162 -0.065561585
-0.13613178 0.11761411 0.2635612 0.039169293 -0.15474084 0.10339091 0.17381816 -0.25467288
-0.13382275 0.1424918 0.06320402 0.2736452 -0.0011675505 0.09820222 -0.13114549 0.075687684
0.024830615 0.074051924 -0.070377246 -0.037130997 -0.03598946 0.04610018 -0.029247371 0.08174069
-0.18599156 -0.06926124 0.120865285 0.32193822 0.06269846 0.016936548 0.18157509 -0.17738737
-0.12210221 -0.1343236 0.20041849 -0.12452352 -0.112425506 -0.17867494 0.012653247 0.2760197
0.022266217 -0.00799297 0.18945532 0.19103539 -0.1743328 0.21421558 0.122846246 0.2750303
0.16546893 -0.008262772 -0.2007457 0.06675786 0.08580453 -0.03681759 0.21151063 0.02456163
0.24475048 -0.010820309 -0.035861474 -0.11775243 0.2724105 0.08824942 0.2934819 0.00032538097
-0.1246517 0.1128984 -0.07828634 0.10004771 0.18929054 0.14165269 -0.2568842 0.46094385
-0.08249701 0.10318904 -0.17878643 0.12238375 -0.09523314 0.0074701523 0.039301634 -0.19294602
0.09785653 0.089595504 0.10369764 0.060957212 0.12533896 0.13430953 -0.31776315 0.18379991
0.012863961 0.3173881 0.29073748 -0.25804326 -0.011090524 -0.114282176 -0.3505837 0.25653806
0.058055997 0.19423153 0.02634554 0.04979692 0.3367011 0.20290194 0.27285972 0.08641634
-0.0030028783 -0.04268463 -0.10789605 -0.06773079 0.04370716 0.21501352 -0.24885651 0.16242376
-0.05990287 -0.048496753 0.18795396 -0.050926976 -0.011856309 -0.32731262 0.021067856 -0.059409253
0.099039234 -0.10857667 -0.10632246 0.27605075 -0.2205077 0.15852822 0.102947906 0.04419559
-0.06774911 -0.13261269 -0.17191549 -0.45414284 0.12152529 -0.18804152 -0.04679188 -0.0858337
0.01960032 0.041564755 0.03230129 0.081928834 0.18495727 -0.3968482 0.1089228 -0.103533775
0.25718477 -0.18674898 0.2135576 0.092535086 0.15221883 -0.21205261 -0.21980058 0.2210562
0.14059433 -0.23396197 0.0103891445 0.13648047 0.3990407 -0.2045683 0.058334507 -0.2643914
0.15290473 0.055881876 0.23115186 0.04180314 0.10591601 0.13480572 0.45767665 0.19444449
-0.1010647 -0.2105376 0.13542157 -0.049605265 0.036318548 0.062579915 0.11050872 -0.17917551
-0.07080001 -0.08755086 -0.25929037 -0.23140796 -0.24652375 -0.07061593 0.027477857 0.04186441
-0.09721805 -0.15518263 -0.13489717 -0.02645458 -0.060109787 -0.011641608 0.022020008 -0.28740165
0.3793625 -0.021914242 -0.07134288 0.100110635 0.003279152 -0.08787836 0.09791206 0.006908437
-0.012601401 -0.10960989 -0.050620034 -0.08347803 -0.011722486 -0.2465492 -0.2009555 -0.1763557
