Preprocessing/embedding_pretrained_weights_combined_384dim.pt (torch, 183631 bytes, 4 tensors)

0.weight f4 [100, 66]
0	0xbed249db	-0.41071972
1	0x3eeec8e0	0.4663763
2	0xbdaf58aa	-0.08561833
3	0xbeb768de	-0.35822195
4	0xbc444d18	-0.011981271
5	0xbefe6554	-0.49686682
6	0xbe2f82a7	-0.17139684
7	0x3e9ea57f	0.30985638
8	0x3ed10d36	0.40830392
9	0xbe810b6e	-0.25204033
10	0xbe502429	-0.20326294
11	0x3f25c19c	0.6474855
12	0xbe3f784a	-0.1869823
13	0xbdb11b2e	-0.08647762
14	0xbdd608d9	-0.10450906
15	0xbe80e9d0	-0.25178385
16	0xbc8dc770	-0.017307013
17	0xbf00b73f	-0.5027961
18	0x3ed2c2b3	0.4116417
19	0x3f134af0	0.5753622
20	0xbdd1fda9	-0.1025346
21	0x3edc8195	0.43067613
22	0xbd24129c	-0.04005681
23	0x3d9d4dde	0.076808676
24	0xbe0f8ec3	-0.14019303
25	0xbebc6279	-0.3679388
26	0x3ce5c338	0.02804719
27	0xbdb71106	-0.08938794
28	0x3f1f325e	0.6218623
29	0x3ea1f762	0.3163405
30	0x3e6cf7f2	0.23141459
31	0xbf37a2e0	-0.717329
32	0xbdc4b4b9	-0.096047826
33	0xbed773d9	-0.42080572
34	0xbe728382	-0.23682979
35	0x3e269219	0.1626667
36	0xbeaaa223	-0.33326825
37	0xbd397eb5	-0.045286853
38	0xbb25ce33	-0.0025299906
39	0x3f328f13	0.69749564
40	0x3d9adf10	0.07562077
41	0xbdc97a94	-0.09837833
42	0x3e861c9c	0.26193702
43	0x3dbc230b	0.091863714
44	0x3daaf0eb	0.08346733
45	0xbe8465c2	-0.25858885
46	0xbe8ededb	-0.279044
47	0xbe870cea	-0.2637704
48	0x3e72291b	0.23648493
49	0x3eddd3f9	0.43325785
50	0x3e7bd120	0.24591494
51	0xbe289bbd	-0.1646566
52	0xbe81edd2	-0.25376755
53	0xbee049a2	-0.43806177
54	0x3e83f550	0.25773096
55	0xbe93044d	-0.2871422
56	0x3e964764	0.29351342
57	0x3ea96d6f	0.33091304
58	0xbe1a6324	-0.15076882
59	0x3cfc65e9	0.030810313
60	0xbeb59d68	-0.35471654
61	0x3d239b97	0.039943304
62	0x3b8f37f2	0.004370683
63	0xbd863e4a	-0.065548494
64	0xbcdacbbc	-0.026708476
65	0x3b5b0440	0.0033419281
66	0x3f30425b	0.6885125
67	0xbf2a8a0f	-0.6661691
68	0x3e10c22b	0.14136569
69	0x3e2b3507	0.16719447
70	0x3e75a4cb	0.23988645
71	0xbf063af8	-0.5243373
72	0xbc6ad2b2	-0.01433246
73	0x3ed6b913	0.41938075
74	0x3eec9744	0.46209157
75	0xbece3f7e	-0.40282816
76	0x3ed2046a	0.41018993
77	0xbecee825	-0.40411487
78	0x3e8dbfb5	0.27685323
79	0x3db3ad13	0.08773246
80	0x3dc2cc9c	0.095116824
81	0x3dcbe195	0.09955136
82	0x3db2bd8c	0.087275594
83	0x3eb1d62a	0.34733707
84	0x3eb33585	0.3500177
85	0x3e52cc81	0.20585825
86	0x3df4ac90	0.11946976
87	0xbddcf855	-0.10789553
88	0xbd468c79	-0.04847381
89	0xbf330cbc	-0.69941306
90	0x3f32e342	0.6987802
91	0xbebd515f	-0.36976144
92	0xbd9c5c8a	-0.07634838
93	0xbe1aac6b	-0.15104835
94	0xbf1c165d	-0.60971624
95	0xbed7c95f	-0.4214582
96	0x3dccbdb2	0.09997119
97	0xbe92c5a4	-0.28666413
98	0x3deef8c0	0.11668539
99	0xbf20e37c	-0.62847114
100	0x3f29cccc	0.6632812
101	0x3e85d144	0.2613622
102	0xbe91caac	-0.2847494
103	0xbe234911	-0.15945841
104	0x3eb173a0	0.34658527
105	0x3ddfed5f	0.10933947
106	0xbe0e8cb0	-0.13920856
107	0x3da467c6	0.08027606
108	0x3e0e7efb	0.13915627
109	0xbdec738e	-0.11545478
110	0x3d87ba5e	0.066273436
111	0x3ed790d1	0.42102674
112	0x3db38fe2	0.08767678
113	0xbde63739	-0.11241002
114	0xbe7c364f	-0.24630092
115	0xbde69227	-0.11258345
116	0xbef83ef0	-0.48485518
117	0x3df72dc2	0.120692745
118	0xbe341661	-0.17586662
119	0x3e6c769e	0.23092124
120	0x3d7a76f5	0.061148603
121	0xbed32f56	-0.41247052
122	0x3e5abfa2	0.21362165
123	0x3ea33775	0.31878248
124	0x3e6ae056	0.2293714
125	0xbdaaf060	-0.08346629
126	0xbe9f39e7	-0.31098863
127	0xbd54112a	-0.05177418
128	0x3deda766	0.11604194
129	0xbc7f76c2	-0.015592279
130	0x3ce808f0	0.028324574
131	0xbd5b458c	-0.053533122
132	0x3ef454fa	0.47721082
133	0xbeefaa7d	-0.4680976
134	0x3ebfab3c	0.3743533
135	0x3f454cca	0.77070296
136	0xbe043ae1	-0.12913086
137	0xbed9d56b	-0.42545637
138	0xbd13e10f	-0.036103304
139	0x3eae06a7	0.3398945
140	0x3e843ded	0.25828496
141	0xbeb39aa6	-0.35078925
142	0x3e871808	0.26385522
143	0x3ec1eed2	0.37877518
144	0x3f0d6a2e	0.5524014
145	0x3ecff648	0.40617585
146	0xbe837b36	-0.2567994
147	0x3e9265f3	0.28593406
148	0x3ddf6d0a	0.109094694
149	0xbe7cda1f	-0.24692582
150	0xbefa377f	-0.48870465
151	0xbde27275	-0.11056987
152	0xbd132782	-0.03592635
153	0x3b6322d7	0.0034658217
154	0xbeb13c06	-0.34616107
155	0xbf12b3d3	-0.5730564
156	0xbeb19d4e	-0.34690326
157	0x3ed0485a	0.406802
158	0x3def6450	0.11689055
159	0xbe13416e	-0.14380428
160	0xbe8718b0	-0.26386023
161	0xbf566f88	-0.83763933
162	0xbdd0fa39	-0.10203976
163	0x3e1a2ccb	0.1505615
164	0x3dd35368	0.10318643
165	0xbf099371	-0.537406
166	0x3f0b134f	0.5432634
167	0xbdbe0786	-0.09278779
168	0x3e6ca95a	0.23111477
169	0x3e1b9f94	0.15197593
170	0xbeea732d	-0.45790997
171	0xbed11df0	-0.40843153
172	0x3ee1d339	0.44106463
173	0xbd0d3a9a	-0.034479715
174	0xbda4a716	-0.080396816
175	0x3daab026	0.08334379
176	0x3dfedf6e	0.124449596
177	0x3dcedd54	0.10100809
178	0x3e9b0c09	0.3028262
179	0x3d9fddd6	0.07805984
180	0x3dc2a2ac	0.095036834
181	0xbcfcbb64	-0.030851074
182	0x3e87d80f	0.26532027
183	0xbd464256	-0.048403107
184	0xbe03b696	-0.1286262
185	0x3e81a627	0.25322077
186	0xbea23347	-0.31679747
187	0x3e4826c5	0.1954604
188	0xbe245fde	-0.16052195
189	0x3dd74e6e	0.10513006
190	0x3e668b4f	0.2251408
191	0x3e76108f	0.24029754
192	0xbd984a61	-0.07436062
193	0xbdb5b42c	-0.08872256
194	0xbe182d0e	-0.14860937
195	0xbd056fd6	-0.03257736
196	0xbd6042fe	-0.05475139
197	0x3bf689e0	0.00752376
198	0x3d0ff1d0	0.03514272
199	0xbc48fcac	-0.012267273
200	0xbed43f10	-0.41454363
201	0xbe8ba493	-0.27273998
202	0xbd370dbd	-0.044690836
203	0x3e8a7224	0.27040207
204	0xbca721f7	-0.020401938
205	0x3f05bb9d	0.522394
206	0x3ead8cf0	0.3389659
207	0xbdf3f400	-0.11911774
208	0x3e198d90	0.14995408
209	0x3e88321d	0.26600733
210	0xbe959f5c	-0.29223144
211	0x3defad15	0.11702935
212	0xbe5882a6	-0.21143588
213	0xbedee6da	-0.435355
214	0x3df22e20	0.11825204
215	0x3bceedf3	0.006314987
216	0xbf0da360	-0.55327415
217	0x3e71d681	0.23616983
218	0xbccb7d20	-0.024839938
219	0xbecd2385	-0.40066162
220	0xbeb5784a	-0.35443336
221	0xbf0bf509	-0.5467077
222	0x3e68e665	0.22744139
223	0x3f022edd	0.5085276
224	0xbd116fca	-0.035507
225	0x3de63c24	0.1124194
226	0x3ea7c0fa	0.32764417
227	0x3e944c3e	0.28964418
228	0x3d6e0af3	0.05811591
229	0x3e2d68e7	0.16934548
230	0x3dde1368	0.10843545
231	0x3eb25deb	0.3483728
232	0x3d40d04a	0.04707364
233	0xb9270887	-0.00015929538
234	0x3e8b0ee3	0.27159795
235	0x3d7feea6	0.062483452
236	0x3ea6c159	0.32569388
237	0xbf435351	-0.76299006
238	0x3ebbfd68	0.3671677
239	0x3b930160	0.004486248
240	0x3d6ff31e	0.058581464
241	0xbd9c246b	-0.07624134
242	0xbcd6141e	-0.02613264
243	0x3d9a0b47	0.07521682
244	0x3e6a9296	0.2290748
245	0x3cd3819b	0.025818637
246	0xbd8077f8	-0.06272882
247	0xbe9fdd2b	-0.31223425
248	0xbe2c71df	-0.16840313
249	0x3d36b587	0.04460671
250	0x3eac07cf	0.33599707
251	0x3e03ab4e	0.12858316
252	0xbdca40e8	-0.09875661
253	0x3c95a601	0.018267633
254	0x3d41a345	0.047274847
255	0x3e24c2fa	0.16090003

0.bias f4 [100]
0	0xbca4e8fd	-0.020130629
1	0xbe02dbdb	-0.1277918
2	0xbe3eb9b4	-0.18625528
3	0x3e07e312	0.13270214
4	0xbbe4b81d	-0.006979956
5	0xbdfc795d	-0.12327836
6	0x3eaacf88	0.3336146
7	0xbce04ddf	-0.027380882
8	0x3e436d35	0.19084628
9	0x3d448273	0.04797597
10	0x3d8f983f	0.070114605
11	0xbe5fd1ad	-0.21857329
12	0x3de034f8	0.10947603
13	0xbdff1519	-0.12455196
14	0xbe215446	-0.15754804
15	0xbd2e4192	-0.042543
16	0xbd8ba7d6	-0.068191215
17	0x3dea258c	0.11432943
18	0x3c55140d	0.013005269
19	0xbe6e6b8b	-0.23283212
20	0xbd8e0176	-0.069338724
21	0x3d0bac76	0.03410002
22	0x3e470ff6	0.19439682
23	0x3e7013d7	0.23445068
24	0x3e55ac42	0.20866492
25	0x3dc39cb2	0.09551372
26	0xbd814803	-0.06312563
27	0xbe1c4a02	-0.15262607
28	0xbdd29af8	-0.10283464
29	0xbd870493	-0.06592669
30	0x3e633dd5	0.22191556
31	0x3e999c29	0.30001953
32	0xbdc79b15	-0.097463764
33	0xbdfa77e1	-0.12229896
34	0xbe16d165	-0.14728315
35	0x3a91fe0f	0.0011138337
36	0xbc8d5dd0	-0.017256647
37	0xbe839978	-0.25703025
38	0xbcba8d83	-0.022772556
39	0x3dbda686	0.092602775
40	0xbd7c987c	-0.061668858
41	0xbcc56e71	-0.024100514
42	0xbdef9171	-0.116976626
43	0x3c8c5b00	0.017133236
44	0xbcc33564	-0.02382917
45	0x3d71efd8	0.059066623
46	0xbdabef47	-0.08395248
47	0xbe681198	-0.22662961
48	0x3d6252ea	0.055254854
49	0xbe5a22fc	-0.21302408
50	0xbdc5a8b5	-0.09651319
51	0x3b2423c6	0.0025045737
52	0xbd0338a2	-0.03203643
53	0xbdfd7974	-0.12376681
54	0xbc8c877a	-0.017154444
55	0x3e855cfa	0.26047498
56	0xbe8d5f06	-0.2761156
57	0x3d3e2a52	0.04642708
58	0x3c7bfbb0	0.015379831
59	0xbd91ee78	-0.071255624
60	0xbd05297e	-0.032510273
61	0xbe1adfc1	-0.15124418
62	0xbe321deb	-0.17394225
63	0xbcfe2bb2	-0.031026695
64	0xbd339b18	-0.04384908
65	0x3ddc5e13	0.10760131
66	0xbd2fc1b3	-0.042909335
67	0x3e1ac7c9	0.15115274
68	0xbd9703ef	-0.07373797
69	0x3df4dac0	0.11955786
70	0x3e98581b	0.2975472
71	0x3e31ac29	0.1735083
72	0x3d05847e	0.032597058
73	0xbe5b765d	-0.21431871
74	0xbcdb8da4	-0.026800938
75	0xbe41d7de	-0.18930003
76	0xbd927c88	-0.07152659
77	0x3e12cc9c	0.14335865
78	0x3d010a2b	0.031503838
79	0xbc92a09e	-0.017898854
80	0xbd92b445	-0.0716329
81	0x3b7ac648	0.0038265157
82	0x3e25190f	0.1612284
83	0x3e113ec0	0.14184093
84	0xbcab6afb	-0.020925036
85	0x3cf9b1c3	0.030480271
86	0x3e0f4c84	0.13994032
87	0xbca1d41a	-0.019754458
88	0x3e74ef2e	0.23919365
89	0xbe51b6a8	-0.20479834
90	0xbc92c03a	-0.017913926
91	0xbd372e35	-0.0447218
92	0xbda3f728	-0.08006126
93	0x3d850acd	0.06496201
94	0x3d56c033	0.05242939
95	0xbd446f21	-0.047957543
96	0x3da92a97	0.082600765
97	0xbe09d73f	-0.13461016
98	0x3ca8cdc4	0.02060593
99	0x3e738eb5	0.23784907

2.weight f4 [384, 100]
0	0x3f02b4f3	0.51057357
1	0x3e5671ce	0.2094185
2	0xbed4e3a8	-0.41579938
3	0x3d399fe4	0.0453185
4	0x3d83fed5	0.0644509
5	0x3da22901	0.07917977
6	0xbe287457	-0.1645063
7	0xbedb7a8d	-0.42866936
8	0xbdd925a2	-0.10602881
9	0xbdcb9936	-0.09941332
10	0x3e9d0d0c	0.30674016
11	0xbe0f52b5	-0.13996394
12	0x3ec4603a	0.38354665
13	0xbeaee696	-0.34160298
14	0xbe701b9e	-0.23448035
15	0x3d11d1c0	0.035600424
16	0x3e107183	0.14105801
17	0x3d403e97	0.04693469
18	0xbea28b07	-0.31746694
19	0xbde23365	-0.11044959
20	0xbecd9415	-0.4015204
21	0x3dece2fb	0.115667306
22	0x3d9ce19d	0.0766022
23	0x3e85e98e	0.2615475
24	0x3e14f99b	0.14548342
25	0xbe497625	-0.19673975
26	0xbee1c0ee	-0.44092506
27	0xbdeb1ddf	-0.11480307
28	0xbe36527c	-0.17804903
29	0x3e1d391c	0.15353817
30	0x3e99bac3	0.300253
31	0xbccfdeb3	-0.025374746
32	0xbeafe04a	-0.34350806
33	0xbd928c59	-0.071556754
34	0xbe8b3583	-0.27189264
35	0xbd1df94d	-0.03856783
36	0xbc46f977	-0.012144438
37	0xbc70053f	-0.014649688
38	0x3dfc2689	0.123120375
39	0xbe9d6b8f	-0.30746123
40	0xbe9a3ef2	-0.30126148
41	0xbe719ffc	-0.23596185
42	0x3e4a967e	0.1978397
43	0xbebc5f06	-0.36791247
44	0xbc53baa9	-0.012922921
45	0xbd7d4d07	-0.061841037
46	0x3d95fff8	0.07324213
47	0xbe3a7b5a	-0.18211117
48	0x3e6f026f	0.23340772
49	0x3e559dd6	0.20860991
50	0xbd96245d	-0.073311545
51	0xbd8b5113	-0.06802573
52	0x3c685724	0.014180932
53	0xbe151427	-0.14558469
54	0xbd2ff954	-0.042962387
55	0x3d160307	0.03662398
56	0x3cc41e93	0.02394036
57	0x3e4bb940	0.19894886
58	0x3c7dd6ee	0.015493138
59	0x3e82061e	0.25395292
60	0x3daa2f11	0.083097585
61	0x3e4d7321	0.2006345
62	0xbe54cb75	-0.20780738
63	0x3dd8af4d	0.10580311
64	0x3dc4d215	0.096103825
65	0x3de0f0d1	0.10983432
66	0x3d871fe4	0.065978795
67	0x3e1381d7	0.14404999
68	0xbee195a0	-0.44059467
69	0xbe662080	-0.22473335
70	0x3c1c76d7	0.009549818
71	0xbc24c18e	-0.010055913
72	0xbe52d4e9	-0.20589031
73	0x3ddfc360	0.10925937
74	0x3e6c2f3f	0.23064898
75	0xbd27194a	-0.040795602
76	0x3e4d0ed2	0.20025185
77	0xbe91a18e	-0.2844357
78	0x3ef54c8a	0.47909957
79	0x3e347851	0.17624022
80	0xbd8297c7	-0.063766055
81	0x3e49ca16	0.19705996
82	0x3e8348b3	0.25641403
83	0xbe33e759	-0.17568721
84	0xbd319df9	-0.043363545
85	0x3e00df98	0.12585294
86	0xbd6a4bc0	-0.057201147
87	0xbe85cc4c	-0.2613243
88	0x3d27893a	0.040902354
89	0xbe931ce4	-0.2873298
90	0xbcce17ad	-0.025157774
91	0x3d44cc32	0.0480463
92	0xbdd08606	-0.10181813
93	0xbddaccf0	-0.1068362
94	0x3d906ccf	0.070520036
95	0xbe02d8a2	-0.12777951
96	0x3cb36c08	0.0219021
97	0x3f1142a1	0.5674229
98	0x3d83acaf	0.06429421
99	0xbd42ac95	-0.04752787
100	0xbe4bf1d7	-0.19916473
101	0x3ec826dc	0.39092147
102	0x3e39fb07	0.18162166
103	0x3e23188c	0.15927333
104	0x3ef7cf95	0.4840056
105	0xbd826f86	-0.06368928
106	0xbdfa5055	-0.12222353
107	0x3e62e8e3	0.22159152
108	0xbe85fe65	-0.2617065
109	0xbe2e3147	-0.17010985
110	0x3e19f16c	0.15033501
111	0x3eacea09	0.33772305
112	0x3efcad98	0.49351192
113	0xbd833a93	-0.064076565
114	0xbd15a751	-0.03653652
115	0xbe57d68d	-0.21077938
116	0xbd4fa71e	-0.050696485
117	0x3e2e15cf	0.17000507
118	0xbf046812	-0.517213
119	0x3de687a8	0.11256343
120	0xbe55a9e2	-0.20865586
121	0xbe7d3ffa	-0.24731436
122	0x3eadae8b	0.33922228
123	0xbe52c0e0	-0.20581388
124	0xbec46b77	-0.3836324
125	0xbdeac246	-0.11462836
126	0x3d96487d	0.07338045
127	0xbe549cb7	-0.20762907
128	0x3da2bcef	0.079461925
129	0x3d3bae1b	0.045820337
130	0x3e7da5af	0.24770235
131	0xbe8f976d	-0.28045216
132	0xbd5779fc	-0.052606568
133	0x3e203a48	0.15647233
134	0xbecd78ab	-0.40131125
135	0xbeaec043	-0.3413106
136	0xbca8f32b	-0.020623764
137	0xbd2f5401	-0.04280472
138	0x3d07b9b4	0.033136085
139	0xbe400864	-0.18753201
140	0xbea5d05a	-0.32385522
141	0x3d94dc2d	0.07268558
142	0xbdb84e51	-0.08999313
143	0xbebc9fd3	-0.36840686
144	0x3d838b59	0.06423063
145	0xbdc92348	-0.098211825
146	0xbcd914a2	-0.026499096
147	0xbe6512f4	-0.22370511
148	0xbde8b28e	-0.113621816
149	0xbd84210d	-0.064516164
150	0xbe36907f	-0.17828558
151	0xbe386ceb	-0.18010299
152	0x3dde5b26	0.10857229
153	0xbe6a2f98	-0.22869718
154	0x3e629fef	0.22131322
155	0xbe69ad7d	-0.22820087
156	0x3d0a1077	0.03370711
157	0x3e549eb5	0.20763667
158	0xbe09c9a0	-0.1345582
159	0x3dd08a28	0.10182601
160	0x3e8e08d1	0.277411
161	0xbd091c52	-0.033474274
162	0xbe07f8ee	-0.13278553
163	0xbd772615	-0.060339052
164	0x3dca6f03	0.09884455
165	0x3e9b86b4	0.30376208
166	0xbe595a2c	-0.21225804
167	0x3da19b51	0.078909524
168	0xbccbca84	-0.02487684
169	0xbd73ebe8	-0.05955115
170	0x3e2580ad	0.16162367
171	0x3df27b1b	0.11839887
172	0xbe3bd5d9	-0.18343295
173	0x3e036bdc	0.12834114
174	0xbe8db07e	-0.27673715
175	0x3d3050b3	0.04304571
176	0xbdcdbc3d	-0.10045669
177	0xbabe08b1	-0.001449844
178	0x3e95de14	0.29270995
179	0xbe557fda	-0.20849553
180	0xbeb5690a	-0.354317
181	0x3e736d8a	0.23772255
182	0xbd49ecc7	-0.049298074
183	0xbea91852	-0.33026367
184	0xbd49ae0a	-0.049238242
185	0x3c8b5643	0.017008906
186	0xbd6ce4f8	-0.05783555
187	0xbd547b31	-0.051875297
188	0xbdb9d6ee	-0.09074198
189	0xbcfbeab9	-0.030751573
190	0x3d86e7eb	0.065872036
191	0x3dddf401	0.10837556
192	0xbe0e6655	-0.13906224
193	0xbe195ae1	-0.14976074
194	0x3e9ad5a4	0.3024112
195	0xbdff1ad1	-0.12456287
196	0xbe6adae0	-0.22935057
197	0x3e78cb34	0.24296266
198	0x3e0ec642	0.13942817
199	0x3e8ba1b5	0.2727181
200	0xbc1e48a9	-0.009660878
201	0x3e59a92c	0.2125594
202	0x3da5fd36	0.08104937
203	0xbe17d3f2	-0.14826944
204	0xbdfc62ef	-0.123235576
205	0xbdb1d5de	-0.0868337
206	0x3d5b1c56	0.05349382
207	0x3e281f0f	0.16418098
208	0xbe4cd9c3	-0.20004945
209	0x3dfd29dc	0.123615
210	0x3dd27684	0.10276511
211	0x3d0fa8f3	0.035073232
212	0xbd9b4d6f	-0.07583129
213	0x3e03ecf3	0.12883358
214	0xbd6c0e37	-0.057630744
215	0xbe76ba93	-0.2409461
216	0x3d9fbd5e	0.07799791
217	0xbe842d4d	-0.25815812
218	0x3e904ac7	0.2818205
219	0x3e98bf60	0.29833508
220	0xbdb0dfd3	-0.08636441
221	0x3db62be9	0.08895094
222	0x3d17c65a	0.037054397
223	0x3e669bea	0.22520414
224	0x3dd7b9f6	0.10533516
225	0x3e2955d6	0.1653665
226	0x3ab7e586	0.0014030195
227	0xbe24eacd	-0.16105194
228	0x3e87e62a	0.2654279
229	0x3d13e783	0.03610946
230	0xbc9cbe4c	-0.01913371
231	0xbe5abfc9	-0.21362223
232	0x3deb2df8	0.11483377
233	0xbe99e42b	-0.3005689
234	0x3e8a478f	0.2700772
235	0x3d7b6ea9	0.06138483
236	0x3ea73ded	0.32664433
237	0xbeafc2d2	-0.34328324
238	0x3c9c6884	0.019092806
239	0xbe0e74d1	-0.1391175
240	0xbe9d9e77	-0.30784962
241	0xbe20390c	-0.15646762
242	0xbe9b8466	-0.3037445
243	0x3b419607	0.0029538886
244	0x3ded0d2f	0.1157478
245	0x3e31c6eb	0.17361037
246	0xbe1996b2	-0.14998892
247	0xbe6e61cb	-0.23279493
248	0x3deac7b5	0.11463872
249	0xbdf05c5e	-0.11736368
250	0x3cb3a313	0.021928346
251	0x3e95b610	0.29240465
252	0x3d99cab2	0.07509364
253	0x3e4ba2ba	0.19886294
254	0xbe94ac24	-0.29037583
255	0xbdfd44f7	-0.123666696

2.bias f4 [384]
0	0x3d893ea8	0.06701404
1	0xbdaa30c9	-0.08310086
2	0x3d3ec9e5	0.04657926
3	0x3c065a82	0.00820029
4	0x3d9827db	0.07429477
5	0x3c51609b	0.01277938
6	0x3d482175	0.048860032
7	0x3d1f3d79	0.038876984
8	0x3d9b608a	0.07586773
9	0x3d06e429	0.032932434
10	0x3e1d7cb3	0.153796
11	0xb81fc666	-3.8093327e-05
12	0x3cf57c4e	0.0299665
13	0x3d859e2b	0.06524309
14	0x3cc76445	0.024339804
15	0xbc39cbd1	-0.0113400975
16	0x3db89016	0.09011857
17	0xbe2433de	-0.16035411
18	0xbd7b0e6c	-0.06129305
19	0xbd53bdaf	-0.05169457
20	0xbc750265	-0.014954184
21	0x3d6da833	0.058021735
22	0x3cc31f87	0.023818744
23	0x3d2864ed	0.041111875
24	0xbd3dc660	-0.046331763
25	0x3e14c112	0.14526775
26	0x3d2d00ca	0.04223708
27	0xbdd3d030	-0.10342443
28	0xbadb1c85	-0.0016716874
29	0x3d86ed9e	0.06588291
30	0x3d61bade	0.05510985
31	0x3c0eac0e	0.008708013
32	0xbd65ecda	-0.056134082
33	0xbda21e3f	-0.07915925
34	0x3d47e782	0.048804767
35	0xbe644fe8	-0.22296107
36	0xbc642e06	-0.0139269885
37	0xbdf6951c	-0.12040159
38	0x3d907b25	0.07054738
39	0xbda85286	-0.08218865
40	0xbe04f12c	-0.12982625
41	0x3d89157a	0.066935495
42	0xbcf76ed7	-0.03020422
43	0xbd9572b1	-0.07297266
44	0x3d344da6	0.044019364
45	0xbd5c73d6	-0.053821407
46	0x3d59c098	0.053162187
47	0xbd1cbbb8	-0.03826496
48	0x3d0b4f70	0.034011304
49	0xbb7d69be	-0.0038667764
50	0xbdaa9aa1	-0.083302744
51	0x3da33144	0.07968381
52	0xbdbe6c9d	-0.0929806
53	0xbd1158ec	-0.035485193
54	0x3cf688a4	0.030094452
55	0xbd7be7fb	-0.06150053
56	0xbdee5040	-0.116364
57	0x3dd1967b	0.1023378
58	0x3da44647	0.08021217
59	0xbd22d65d	-0.039755214
60	0x3d57739c	0.052600488
61	0xbdc29aac	-0.095021576
62	0x3d734ac5	0.059397478
63	0xbc027363	-0.007962081
64	0xbc18721c	-0.00930455
65	0x3c24df6e	0.010063035
66	0xbdd28c55	-0.102806725
67	0xbe0a4728	-0.13503706
68	0xbd483521	-0.048878793
69	0x3d3f3f28	0.04669109
70	0xbd756fe0	-0.059921145
71	0x3e16184f	0.1465771
72	0x3e0fff10	0.14062142
73	0xbd30e07d	-0.04318284
74	0x3d0493fa	0.032367684
75	0xbceb4975	-0.02872155
76	0x3d45ad45	0.048260946
77	0x3d8ae59f	0.06782078
78	0xba0578c4	-0.0005091543
79	0xbdb2b7e6	-0.08726482
80	0x3b9466cf	0.0045288573
81	0x3d9ef602	0.07761766
82	0xbc40fb79	-0.011778706
83	0xbd2cd62f	-0.04219645
84	0x3d1ac372	0.037784047
85	0xbdc855d3	-0.09781995
86	0x3d3f47bd	0.046699274
87	0x3db88695	0.090100445
88	0x3d5830e7	0.052781012
89	0x3a9c2b5a	0.0011914775
90	0x3c335065	0.0109444605
91	0xbd87476b	-0.06605419
92	0xbd6704c2	-0.05640102
93	0x3c81cdb1	0.015845152
94	0xbd092abf	-0.03348803
95	0xbddfe166	-0.10931663
96	0xbcd1b8fb	-0.0256009
97	0x3d54c2f2	0.051943727
98	0xbc99526f	-0.018716065
99	0x3d09de80	0.03365946
100	0x3d77ba85	0.060480613
101	0x3a1baa22	0.00059381325
102	0xba60e240	-0.0008578636
103	0xbac33c5b	-0.0014895307
104	0x3d2d6783	0.042335045
105	0xbd1196c2	-0.035544164
106	0x3d6a8939	0.057259772
107	0x3c2c31d9	0.0105099315
108	0xbd6644b1	-0.056217853
109	0x3d5f8ad2	0.05457575
110	0x3c51d729	0.012807646
111	0xbd0d0214	-0.03442581
112	0xbd9a2637	-0.0752682
113	0xbe41e2c4	-0.1893416
114	0x3c68af74	0.014201988
115	0x3d4bb105	0.049729366
116	0x3dc0b229	0.09408981
117	0x3d7d0c4b	0.0617793
118	0x3dd5fe2e	0.104488716
119	0xbd32c12c	-0.043641254
120	0x3e44fe5f	0.1923766
121	0x3c993b23	0.018704956
122	0x3cc325cc	0.023821734
123	0x3d081364	0.033221617
124	0x3d948785	0.07252411
125	0xbd8d7f0c	-0.06908998
126	0x3c269a9f	0.0101687005
127	0xbd95d08c	-0.07315168
128	0xbe0037b9	-0.12521257
129	0xbdb6b12a	-0.0892051
130	0x3e0bc6d2	0.13650063
131	0x3d8504dc	0.064950675
132	0xbd275f83	-0.04086257
133	0xbd2c805d	-0.042114604
134	0xbd013e30	-0.031553447
135	0x3c0bb76e	0.00852762
136	0xbccef25b	-0.025262048
137	0xbcb03e04	-0.021513946
138	0x3d41e7a3	0.047340047
139	0xbdb99a64	-0.09062651
140	0xbd7c073f	-0.061530348
141	0xbb58c140	-0.003307417
142	0xbcda0437	-0.026613338
143	0x3d90a3c9	0.070624895
144	0xbd0ba7e4	-0.03409566
145	0x3d811dcc	0.063045114
146	0xbc9fc2e3	-0.019502109
147	0xbca7349c	-0.020410828
148	0xbd8046f1	-0.06263531
149	0x3e14dc16	0.14537081
150	0x3d0cf056	0.03440889
151	0xbccd96b1	-0.02509627
152	0x3bb02124	0.0053750444
153	0xbd7b92da	-0.061419345
154	0x3d81488b	0.063126646
155	0x3d0fa80d	0.035072375
156	0xbc09f712	-0.008420723
157	0xbd9dc79a	-0.077040866
158	0x3d087af7	0.033320393
159	0xbe6faf2e	-0.2340667
160	0xbdb9d2a2	-0.09073378
161	0xbd0496d6	-0.03237041
162	0xbe0aac75	-0.1354235
163	0x3d420bcd	0.047374535
164	0x3d2c2c9e	0.042034738
165	0xbd8814e4	-0.066446096
166	0xbca6d1b5	-0.020363668
167	0xbcf6b85c	-0.030117206
168	0x3aafcb65	0.0013412057
169	0x3d3bb50a	0.04582695
170	0x3d39697c	0.045266613
171	0x3c07b768	0.008283474
172	0x3de927fa	0.11384578
173	0xbcf61053	-0.03003708
174	0xbdb2305f	-0.08700632
175	0x3ca0793c	0.019589059
176	0x3c9da1d4	0.019242205
177	0x3b4d85da	0.00313603
178	0xbdb0a49c	-0.08625147
179	0x3cafd9ea	0.021466214
180	0x3c84f25c	0.016228847
181	0xbda93689	-0.08262355
182	0x3d3bada9	0.045819912
183	0x3dfe9b20	0.124319315
184	0x3c8f0547	0.017458571
185	0x3d24c44e	0.040226273
186	0x3dd1125e	0.102085814
187	0xbcfe144b	-0.031015536
188	0xbd29b804	-0.041435257
189	0x3dade18c	0.08490285
190	0xbe30d3ae	-0.1726825
191	0x3d6c4da4	0.05769123
192	0xbdfdf88e	-0.12400924
193	0x3d5a2884	0.053261295
194	0x3d8ec038	0.069702566
195	0x3c182e74	0.009288419
196	0xbd499fd9	-0.04922471
197	0x3dd56e98	0.10421485
198	0xbd9b58d6	-0.075853035
199	0x3d87f88c	0.066392034
200	0x3d67d817	0.056602564
201	0x3e20b639	0.15694512
202	0xbddc8063	-0.10766675
203	0x3d3bcc37	0.04584905
204	0xbc6ef61d	-0.014585045
205	0xbe0931de	-0.13397929
206	0x3b8929c4	0.004185887
207	0xbd145b92	-0.03622014
208	0x3d13f114	0.036118582
209	0x3d598e11	0.053114
210	0x3c84392c	0.016140543
211	0xbe0bd2a9	-0.13654579
212	0xbdc75874	-0.09733668
213	0xbda48ee6	-0.08035068
214	0xbdcf4172	-0.101199046
215	0x3c7c1ec6	0.015388196
216	0xbd917284	-0.0710192
217	0x3df2f418	0.118629634
218	0xbdd779f9	-0.10521311
219	0x3d36c730	0.044623554
220	0x3da3d367	0.07999306
221	0x3dc21457	0.09476536
222	0xbb3113b9	-0.0027019812
223	0x3cd440c2	0.025909785
224	0x3ce8acf0	0.028402776
225	0x3a80eb94	0.0009835833
226	0xbac7a70f	-0.0015232282
227	0x3c4ec8aa	0.012621084
228	0xbdf26d71	-0.118372805
229	0xbd99c3b3	-0.0750803
230	0x3c8a6266	0.016892623
231	0x3d2c31d6	0.042039715
232	0x3dff475d	0.12464783
233	0xbc738172	-0.014862405
234	0xbd94f58f	-0.07273399
235	0xbdb63407	-0.08896642
236	0x3d6074bc	0.054798827
237	0xbda9c82d	-0.082901336
238	0xbd8667fb	-0.065628015
239	0xbd95ea23	-0.07320049
240	0xbc9bd4ef	-0.019022433
241	0xbd0895cc	-0.033345982
242	0xbd87b67d	-0.06626604
243	0xbb23d809	-0.0025000593
244	0x3d0f8633	0.03504009
245	0x3d314bea	0.043285288
246	0x3e22d9e9	0.15903439
247	0x3d648385	0.05578949
248	0x3db65e2c	0.089046806
249	0x3b4b3896	0.003100907
250	0xbd0218b0	-0.031761825
251	0x3d93dda2	0.072200075
252	0x3da6bb74	0.081412226
253	0xbe1c57a8	-0.15267813
254	0xbd8b55b9	-0.0680346
255	0x3d17e9c8	0.037088186
