Preprocessing/embedding_pretrained_weights.pt (torch, 111375 bytes, 4 tensors)

0.weight f4 [50, 25]
0	0x3ecab1cb	0.3958877
1	0x3e366ab5	0.17814143
2	0x3e32e9b9	0.1747197
3	0x3fa55f19	1.2919647
4	0xbeb45e2b	-0.35228094
5	0x3f4a3930	0.7899351
6	0x3d40e52b	0.04709355
7	0xbde4841c	-0.1115801
8	0xbf98b916	-1.1931484
9	0x3e02bd1f	0.12767456
10	0xbe099a75	-0.13437827
11	0xbf0063bb	-0.50152177
12	0x3f22f2a5	0.63651496
13	0x3edbdcda	0.42941934
14	0x3f008080	0.50196075
15	0x3f22baf1	0.635665
16	0xbf04db72	-0.51897347
17	0xbe44c646	-0.1921626
18	0xbdf87f5c	-0.12133667
19	0x3d561a53	0.0522712
20	0x3eabf7db	0.33587536
21	0x3e5c51dd	0.21515603
22	0x3e449671	0.19198014
23	0x3d1f3938	0.038872927
24	0x3f800601	1.0001832
25	0xbccf209d	-0.025284106
26	0x3d713a6e	0.058893614
27	0x3eb1460a	0.34623748
28	0xbd8f75ab	-0.07004865
29	0x3e90b5da	0.28263742
30	0x3edd624a	0.4323905
31	0xbf57c832	-0.8428985
32	0x3fbebdd1	1.4901677
33	0x3eecde7e	0.46263498
34	0x3e0f879a	0.14016572
35	0x3f46de9a	0.77683413
36	0x3e9407e3	0.28912267
37	0xbc7dd3c9	-0.015492388
38	0x3e01d905	0.12680443
39	0xbe4d26dc	-0.20034355
40	0xbe1d09ca	-0.15335765
41	0xbd7feb57	-0.062480297
42	0xbf44086a	-0.7657534
43	0xbf24df7a	-0.644035
44	0x3ed29c6d	0.41134968
45	0x3faf8e17	1.3715237
46	0x3eb1fe3d	0.3476428
47	0x3e43e061	0.19128563
48	0xbe1dc093	-0.15405492
49	0xbeba0bcb	-0.36337122
50	0xbd1d863a	-0.038458087
51	0xbf628524	-0.88484406
52	0xbdfdc375	-0.12390796
53	0x3f2c098a	0.67202055
54	0x3f0d55bf	0.55208963
55	0xbeba7d3a	-0.36423665
56	0xbd3e5722	-0.046469815
57	0xbf8a4d6c	-1.0804877
58	0xbe8f9075	-0.280399
59	0x3a9ca44d	0.0011950821
60	0x3decaa76	0.1155595
61	0xbee161f7	-0.44020054
62	0x3eecde4b	0.46263346
63	0xbe878c9a	-0.26474458
64	0x3e93b5f2	0.2884975
65	0xbedb9dd9	-0.42893866
66	0x3ea40912	0.3203817
67	0x3f23f9aa	0.6405283
68	0xbe621d46	-0.2208148
69	0x3afdd6ed	0.0019366421
70	0xbecdca75	-0.40193525
71	0xbe713ee2	-0.23559144
72	0x3d860f2a	0.06545861
73	0xbb22c140	-0.0024834424
74	0xbf719790	-0.9437189
75	0x3eecdaee	0.4626078
76	0x3e6c56ed	0.23080035
77	0x3d2c8749	0.042121205
78	0x3f1b3d56	0.60640466
79	0xbe152c0f	-0.14567588
80	0x3e8e7253	0.27821597
81	0x3eac31c0	0.33631706
82	0x3f578520	0.8418751
83	0xbf740a09	-0.9532781
84	0xbdcbf965	-0.099596776
85	0x3f019474	0.50617146
86	0x3f858c2b	1.0433401
87	0xbecdc773	-0.4019123
88	0xbf3578ec	-0.7088764
89	0xbf0c675b	-0.5484521
90	0xbf193a49	-0.5985456
91	0x3f0127bb	0.5045125
92	0xbe839122	-0.25696665
93	0xbe7d313a	-0.2472581
94	0xbc78d79c	-0.015188124
95	0xbf50c20a	-0.8154608
96	0x3c2b6dc0	0.010463178
97	0x3e023c9b	0.12718432
98	0x3e1f9cb7	0.15587126
99	0xbd46bf22	-0.048522122
100	0x3f0b3602	0.54379284
101	0x3e830db0	0.2559638
102	0xbe81fe22	-0.253892
103	0xbf3ad23d	-0.7297705
104	0x3e672af1	0.22574975
105	0x3f0e45e3	0.5557539
106	0x3f009abd	0.5023611
107	0xbea72a6c	-0.32649553
108	0x3f6f2e8b	0.93430394
109	0xbe80c810	-0.25152636
110	0xbf1ce56a	-0.6128756
111	0x3f501e26	0.81296
112	0xbf10ae90	-0.5651636
113	0xbe836fe8	-0.25671315
114	0xbf61007e	-0.87891376
115	0x3f11b384	0.56914544
116	0x3f1d7fcb	0.6152312
117	0xbf2e7b06	-0.6815647
118	0x3f13ca83	0.57730883
119	0xbe44ae2a	-0.19207063
120	0xbf3faf05	-0.74876434
121	0xbe3f71e6	-0.18695793
122	0x3d0fc8c0	0.03510356
123	0x3d478e20	0.048719525
124	0x3deeb462	0.11655499
125	0xbeb339ea	-0.35005122
126	0xbf2244bf	-0.6338615
127	0xbdfbcf58	-0.12295407
128	0x3f15403a	0.58301127
129	0x3e47bf7b	0.19506638
130	0x3df3ec46	0.119103
131	0xbe0e8f99	-0.13921966
132	0x3fb7f630	1.4372005
133	0xbf944fff	-1.1586913
134	0xbe96dfba	-0.29467565
135	0xbf229e11	-0.6352244
136	0xbf26a6af	-0.6509809
137	0x3ce82f3e	0.02834284
138	0xbf10d095	-0.5656827
139	0x3e0d6cba	0.13811007
140	0x3e9529d6	0.2913348
141	0x3e8c68dc	0.2742375
142	0xbf0401b8	-0.5156512
143	0x3f85fa59	1.0467025
144	0x3c7d02f3	0.015442598
145	0x3faa8316	1.3321254
146	0xbe1897d4	-0.14901668
147	0xbde20a33	-0.110371016
148	0xbd277fa0	-0.040893197
149	0x3f0207b1	0.50792986
150	0xbf2d865d	-0.6778315
151	0xbea6904c	-0.32531965
152	0xbe947a5a	-0.28999597
153	0xbcec1c8b	-0.028822204
154	0x3e6ddb07	0.23228084
155	0x3e854723	0.26030836
156	0xbe9ebedd	-0.31004992
157	0xbf5e8633	-0.8692352
158	0xbe9ef94f	-0.31049582
159	0xbc990ee2	-0.018683854
160	0x3eb00527	0.3437893
161	0xbdbd8ad3	-0.09254994
162	0x3e315635	0.17318042
163	0x39d0a3e5	0.00039794963
164	0x3ed676fc	0.41887653
165	0x3f2d398a	0.6766592
166	0xbc405202	-0.011738302
167	0xbf8a4c27	-1.080449
168	0xbf261f81	-0.6489182
169	0x3e33e28a	0.17566887
170	0xbfade248	-1.358468
171	0x3e8aaf11	0.2708669
172	0x3de0b236	0.10971491
173	0x3cf68268	0.03009148
174	0xbe0cd251	-0.13752104
175	0x3e311395	0.17292626
176	0x3f6105b7	0.87899345
177	0x3f6a567b	0.9153821
178	0xbf48de97	-0.78464645
179	0xbe9306e5	-0.28716198
180	0xbf395ea8	-0.7241006
181	0x3edf5df8	0.4362638
182	0xbe6087e3	-0.21926837
183	0x3e1e7a06	0.15476236
184	0x3c2d733a	0.010586554
185	0x3ce54054	0.027984776
186	0xbea29caa	-0.3176015
187	0x3f226ead	0.6345013
188	0x3e8a0509	0.26956967
189	0xbf1a9c22	-0.6039449
190	0x3ec0f9a4	0.3769046
191	0x3e3aaf2d	0.18230887
192	0x3ddabb4c	0.10680255
193	0x3e6bcd2c	0.23027486
194	0x3e288c13	0.16459684
195	0x3f2a283a	0.6646763
196	0xbe23d649	-0.15999712
197	0x3da9bd2e	0.08288036
198	0xbaec9400	-0.0018049479
199	0xbebba0d7	-0.3664615
200	0xbf0317cc	-0.51208186
201	0xbe6afb84	-0.22947508
202	0xbed8a8f8	-0.42316413
203	0xbf7fea73	-0.99967116
204	0xbea5f9a0	-0.3241701
205	0xbe85750c	-0.26065862
206	0xbef5d360	-0.4801283
207	0xbe7e9ce7	-0.24864541
208	0xbf667f3a	-0.9003788
209	0x3dba6200	0.09100723
210	0x3d80090b	0.06251725
211	0xbf965e80	-1.1747589
212	0xbf1912e6	-0.5979446
213	0x3fa5e276	1.2959735
214	0xbe9834e8	-0.29727864
215	0xbf155e5e	-0.5834712
216	0xbf064fbd	-0.5246542
217	0xbe87506f	-0.26428553
218	0x3e6b2c14	0.22966033
219	0x3e120835	0.14260943
220	0x3d81792c	0.0632194
221	0xbd90b27c	-0.07065293
222	0x3e42d5e1	0.19026901
223	0x3d636eac	0.055525467
224	0x3f32c170	0.6982641
225	0x3ea0b44f	0.31387565
226	0xbe880f3f	-0.26574132
227	0x3e0fecfa	0.14055243
228	0xbec6e479	-0.38846186
229	0xbe2b086a	-0.16702428
230	0x3e1063a8	0.14100516
231	0x3f0f12df	0.5588817
232	0x3f5818ff	0.8441314
233	0xbf3f4c39	-0.7472568
234	0xbe97c56d	-0.2964281
235	0x3f13d861	0.57752043
236	0x3f500419	0.8125625
237	0x3f40a798	0.7525573
238	0xbd882558	-0.06647748
239	0xbe98b8f2	-0.29828602
240	0xbd859e9f	-0.06524395
241	0xbee1aee7	-0.44078752
242	0x3ed8552a	0.42252475
243	0xbef02df6	-0.46910065
244	0xbe5f4c89	-0.2180654
245	0xbef94cf5	-0.48691526
246	0xbe5248f1	-0.20535637
247	0x3cd1a500	0.025591373
248	0xbd1350a0	-0.035965562
249	0x3ec09eac	0.37621057
250	0x3f05aa58	0.5221305
251	0x3c941b8d	0.018079543
252	0x3da6dd78	0.081477106
253	0xbeec814d	-0.461924
254	0x3e640bc4	0.22270113
255	0x3f08409f	0.53223604

0.bias f4 [50]
0	0x3eaae65a	0.3337887
1	0xbf05d8fe	-0.5228423
2	0xbe393ac7	-0.18088828
3	0x3d8f0188	0.06982714
4	0x3e618b06	0.2202569
5	0x3efefefd	0.49803916
6	0xbe3ca740	-0.18423176
7	0xbe2ce3d2	-0.16883782
8	0xbde46040	-0.11151171
9	0x3ec32134	0.3811127
10	0x3cef88ce	0.029240038
11	0xbe1c2370	-0.15247893
12	0xbec45a75	-0.38350263
13	0xbdce4a5c	-0.10072777
14	0xbe831f25	-0.256097
15	0x3e8a6395	0.270291
16	0xbe1e25e5	-0.15444143
17	0x3e44b019	0.19207801
18	0x3dcef8d2	0.101060525
19	0xbdff1b8a	-0.124564245
20	0x3d95bde4	0.073116094
21	0x3e78b0ef	0.24286245
22	0x3ec5b2c6	0.38612956
23	0xbe8220d5	-0.25415674
24	0x3e174564	0.14772564
25	0xbd996307	-0.07489591
26	0xbec0c1fe	-0.37648004
27	0x3e97ab33	0.29622802
28	0x3e3ce6d0	0.18447423
29	0xbde4310c	-0.111421674
30	0x3e846fb8	0.25866485
31	0xbe9fd304	-0.3121568
32	0xbc9327ca	-0.017963309
33	0xbd981c42	-0.07427265
34	0x3d8f2b5f	0.06990694
35	0x3e92da25	0.28682056
36	0x3dfae0fb	0.12249943
37	0xbe317368	-0.1732918
38	0x3dd554f8	0.10416597
39	0xbe6ae3c9	-0.22938456
40	0xbee83e75	-0.4536015
41	0x3badc35a	0.0053028287
42	0xbe0c9998	-0.13730466
43	0xbe96b82d	-0.2943739
44	0xbe4df3be	-0.20112512
45	0xbdb6bfdb	-0.08923312
46	0x3e53484b	0.20633046
47	0xbe0d15b5	-0.13777812
48	0x3e22bc48	0.15892136
49	0x3ea8da46	0.3297903

2.weight f4 [512, 50]
0	0x3e493263	0.19648127
1	0xbec74070	-0.3891635
2	0x3f4d3b5b	0.80168694
3	0xbe77a46c	-0.24183816
4	0x3f16f365	0.5896514
5	0xbeb045ee	-0.34428352
6	0x3f0ae4c3	0.5425531
7	0xbe3a40d5	-0.18188794
8	0xbd5656d1	-0.05232889
9	0xbe03451c	-0.12819332
10	0x3ef7d37f	0.48403546
11	0x3f10aa37	0.5650973
12	0xbe2e59fe	-0.17026517
13	0x3f5b27e2	0.8560773
14	0x3e59a4d4	0.21254283
15	0xbdcca4c2	-0.099923626
16	0x3cd9db5f	0.026593862
17	0xbefbcb45	-0.4917852
18	0x3dc32af4	0.09529677
19	0xbe8d9bd8	-0.27657962
20	0x3ebd4fed	0.3697504
21	0x3ebdc357	0.37063095
22	0x3f09b62d	0.53793603
23	0x3e651dee	0.22374699
24	0x3e1eb3ee	0.15498325
25	0x3e253d96	0.16136774
26	0x3e85c98e	0.26130337
27	0xbe4c21f5	-0.19934829
28	0x3de29705	0.11063961
29	0x3ea89daf	0.32932803
30	0xbe437e09	-0.19091047
31	0x3e1f8ecc	0.15581816
32	0x3e716e01	0.2357712
33	0x3d4e4e64	0.050367728
34	0x3f1e0a07	0.6173405
35	0xbf218ccb	-0.6310546
36	0xbeadb43a	-0.33926564
37	0xbf0d0d0d	-0.5509804
38	0xbedc23d2	-0.4299608
39	0x3dc03792	0.09385599
40	0x3c561b41	0.013068021
41	0xbdbb086d	-0.091324665
42	0xbecb9a9e	-0.397664
43	0xbda31f2a	-0.079649284
44	0xbe856907	-0.26056692
45	0x3f01f3dd	0.5076273
46	0xbe0da056	-0.13830695
47	0x3eff636f	0.4988055
48	0xbebf7c8a	-0.37399703
49	0x3f062db4	0.5241349
50	0xbde4d680	-0.11173725
51	0xbe7b9db0	-0.24571872
52	0x3e7a032b	0.24415271
53	0x3ea63d05	0.3246843
54	0xbe09f1f0	-0.13471198
55	0xbe38dc6c	-0.18052834
56	0x3efdaf5a	0.49547845
57	0xbecdd3ba	-0.40200597
58	0xbefd3dd5	-0.49461237
59	0x3dd88a4e	0.105732545
60	0x3e220a9b	0.15824358
61	0x3c835700	0.016032696
62	0x3f1de6c7	0.61680263
63	0xbe7ea7ae	-0.24868652
64	0x3d508094	0.05090387
65	0xbe1889a8	-0.14896262
66	0x3ecf45ca	0.40482932
67	0x3f04e21f	0.51907533
68	0x3ca98e74	0.02069781
69	0x3e4991d9	0.19684543
70	0x3c327233	0.010891485
71	0x3ecd2468	0.40066838
72	0x3db27055	0.08712832
73	0x3dbc98cd	0.09208832
74	0x3e7e5577	0.2483729
75	0xbe7b16ba	-0.24520388
76	0x3d22a4c6	0.03970792
77	0xbdf1a7f0	-0.1179961
78	0xbaf10c72	-0.001839055
79	0xbf27cb7a	-0.65544856
80	0x3de88d6b	0.11355098
81	0x3c0a5141	0.008442224
82	0x3e48f37e	0.19624135
83	0x3ce0d8bf	0.027447103
84	0x3e643491	0.22285677
85	0x3e4d68b4	0.20059472
86	0xbe1f1f35	-0.15539248
87	0x3e9d5659	0.3072994
88	0x3e3df0b1	0.18548848
89	0x3ebe1885	0.37128082
90	0x3eac12dd	0.33608142
91	0xbe82c27b	-0.25539002
92	0xbd934b35	-0.07192079
93	0xbe19b400	-0.15010071
94	0x3e3e651c	0.18593258
95	0xbda8e927	-0.08247595
96	0x3e5b3acf	0.21409152
97	0xbc9e6596	-0.01933555
98	0x3eaaa999	0.33332518
99	0x3d39cc2c	0.04536073
100	0xbeac8f63	-0.33703145
101	0xbcf62d3f	-0.030050872
102	0xbc94cd5e	-0.018164333
103	0x3e354c42	0.17704871
104	0x3e67f8f7	0.22653566
105	0x3f3693df	0.71319383
106	0xbca4aea4	-0.020102806
107	0xbe8f543e	-0.2799396
108	0xbd4ab364	-0.049487486
109	0x3ebb672d	0.36602154
110	0x3e8a37e3	0.26995763
111	0xbd0c1370	-0.034198225
112	0xbe85bc50	-0.26120234
113	0xbdf14cb6	-0.117822096
114	0x3e8ea931	0.27863458
115	0x3f0f04fc	0.5586698
116	0xbde88de3	-0.11355188
117	0xbcb07488	-0.021539941
118	0x3e708ac0	0.23490429
119	0xbcbc0b39	-0.02295457
120	0x3d807f68	0.06274301
121	0xbe94c924	-0.29059708
122	0x3ed47da5	0.4150211
123	0xbc60454c	-0.013688397
124	0xbebccd1b	-0.36875233
125	0xbe0273bd	-0.12739463
126	0xbd93ae46	-0.072109744
127	0xbd00ed37	-0.031476226
128	0x3ef80ff9	0.48449686
129	0x3dab7097	0.08371084
130	0x3d3cbe40	0.046079874
131	0x3ed05e36	0.40696877
132	0xbc3f812a	-0.01168851
133	0x3ec9fc5c	0.39450347
134	0x3e1fda52	0.15610626
135	0x3e83ba16	0.2572791
136	0xbe79e244	-0.2440272
137	0xbeaa2d19	-0.33237532
138	0x3e012797	0.12612759
139	0xbe113dfe	-0.14183804
140	0xbf12e63a	-0.5738255
141	0x3ef23c6b	0.4731172
142	0xbe0f10f0	-0.13971305
143	0x3eb4c741	0.3530827
144	0xbc3843be	-0.01124662
145	0xbb386c0c	-0.0028140573
146	0x3eb52b63	0.35384664
147	0x3b31ee60	0.002715014
148	0x3dc8d977	0.09807103
149	0xbda61d55	-0.081110634
150	0xbe8aea4f	-0.27131888
151	0x3ec3e4d6	0.38260525
152	0xbe6c7ecc	-0.23095244
153	0x3ec92596	0.39286488
154	0xbf174576	-0.59090364
155	0xbdb94b9d	-0.09047625
156	0xbe16972b	-0.14706104
157	0xbeb00a16	-0.34382695
158	0x3e234a31	0.1594627
159	0x3dd4ba7b	0.10387131
160	0x3e926f28	0.2860043
161	0xbe2a4348	-0.16627228
162	0xbeab611b	-0.33472523
163	0xbeb81514	-0.3595358
164	0xbe0b3e2b	-0.13597934
165	0x3e99520b	0.29945406
166	0x3da4df4b	0.08050402
167	0xbe98ea77	-0.29866382
168	0xbe9a39aa	-0.3012212
169	0xbe239d86	-0.15978059
170	0x3cc42d9a	0.023947526
171	0xbebf4622	-0.37358195
172	0x3d0562d8	0.032564968
173	0x3ec7f725	0.39055744
174	0xbe7677f1	-0.24069192
175	0x3dbc5f89	0.091979094
176	0xbcb2c033	-0.021820163
177	0xbf459949	-0.7718702
178	0xbd76631b	-0.060153108
179	0x3ea6c16c	0.32569444
180	0xbd20d98b	-0.039269965
181	0x3cc6dd6a	0.0242755
182	0xbde0f90c	-0.10985002
183	0x3f62ce62	0.88596165
184	0xbde1f0b6	-0.1103224
185	0xbf09faef	-0.5389852
186	0xbdab1b05	-0.08354763
187	0xbc821d71	-0.01588318
188	0x3df4c3bf	0.11951398
189	0xbd8f9203	-0.070102714
190	0xbeaa1511	-0.33219197
191	0x3efe0f7f	0.49621198
192	0xbe4a19df	-0.19736432
193	0xbe851f1a	-0.2600029
194	0xbe30cdaf	-0.17265962
195	0x3dd66e95	0.104703106
196	0x3edfd540	0.43717384
197	0xbf89ba0f	-1.0759906
198	0xbe3b187f	-0.18271063
199	0x3ec5e741	0.38652995
200	0xbcdac3f6	-0.02670477
201	0xbd937ab7	-0.072011404
202	0xbcdd8750	-0.027042061
203	0xbe67e5ce	-0.22646257
204	0xbd507b87	-0.050899055
205	0x3dac0291	0.08398927
206	0xbd85f6f0	-0.0654124
207	0xbd610369	-0.054934893
208	0x3e5c2f35	0.21502383
209	0x3e5bc780	0.21462822
210	0x3c9054fc	0.017618649
211	0xbc830d0e	-0.015997436
212	0x3ea39e27	0.31956598
213	0xbf094982	-0.5362779
214	0xbd8d8b3d	-0.06911323
215	0x3e648a08	0.2231828
216	0x3e959b1b	0.292199
217	0x3b3dcbf8	0.0028960686
218	0x3e6045c9	0.21901621
219	0x3cce5ae7	0.02518983
220	0xbea8183e	-0.32830995
221	0xbd9ab847	-0.07554679
222	0xbe508aaa	-0.20365396
223	0xbe71b3d2	-0.23603752
224	0x3c9f5270	0.019448489
225	0x3d3b0f00	0.045668602
226	0xbd4030f3	-0.04692168
227	0x3eb62d90	0.35581636
228	0x3dabc8e2	0.08387925
229	0xbe0169bf	-0.12637995
230	0x3e2ec378	0.17066753
231	0x3f5495ac	0.8304088
232	0x3d49f692	0.049307413
233	0xbeb96eff	-0.36217496
234	0xbdc340af	-0.09533822
235	0xbebb2593	-0.36552104
236	0xbc83e211	-0.016099008
237	0xbed6ea70	-0.41975737
238	0x3e9c8a8c	0.30574453
239	0x3ecd929c	0.40150917
240	0xbeba2953	-0.36359653
241	0x3ca75bec	0.020429574
242	0xbdc57106	-0.09640698
243	0xbd99eb53	-0.07515588
244	0xbea343a1	-0.31887534
245	0x3d52662e	0.051366977
246	0x3ee0a512	0.4387594
247	0x3cb34878	0.021885142
248	0xbe957a3a	-0.29194814
249	0xbeaa17ff	-0.33221433
250	0x3ea06e0d	0.31333962
251	0x3ee79343	0.4522954
252	0xbe8d786d	-0.2763094
253	0x3ea5ec64	0.32406914
254	0x3dfd607d	0.12371919
255	0xbd84ba80	-0.064808846

2.bias f4 [512]
0	0xbe3001ef	-0.17188238
1	0x3d676329	0.05649105
2	0x3dbf57bd	0.093429066
3	0xbe803925	-0.25043598
4	0x3e7e2ab0	0.24820971
5	0x3d0e8720	0.034796834
6	0x3e3b7ed8	0.18310106
7	0xbe6d6588	-0.23183262
8	0x3d4f1441	0.050556425
9	0x3cf6a445	0.030107627
10	0x3dad2dfe	0.08456038
11	0x3e103978	0.14084423
12	0x3d101783	0.035178673
13	0xbdadf4dd	-0.084939696
14	0xbd8c203e	-0.06842087
15	0x3e6373f5	0.22212203
16	0x3e38d799	0.18050994
17	0x3cad85fd	0.021182055
18	0x3c954324	0.018220492
19	0xbe74c2f7	-0.23902498
20	0x3d016dcb	0.031598847
21	0x3d937670	0.072003245
22	0xbc72b97b	-0.01481473
23	0x3e256841	0.16153051
24	0x3eed06dc	0.46294296
25	0x3e900650	0.28129816
26	0xbed4b510	-0.4154439
27	0x3c726e20	0.014796764
28	0xbd2bda7d	-0.041956414
29	0x3cffee6a	0.031241614
30	0xbdaa2129	-0.08307106
31	0xbe026505	-0.12733848
32	0x3d71dcc7	0.05904844
33	0x3d942bdd	0.07234929
34	0x3da56393	0.08075633
35	0x3d9a5523	0.0753577
36	0xbda922da	-0.082586005
37	0xbd810933	-0.06300583
38	0xbe243382	-0.16035274
39	0x3e564323	0.20924048
40	0x3d7881a8	0.060670525
41	0xbe2ffa34	-0.17185289
42	0x3e1d1223	0.1533895
43	0xbca52f8a	-0.02016427
44	0x3db9daf7	0.09074967
45	0xbd3e43ec	-0.046451494
46	0x3dbd5d54	0.092463166
47	0xbe48a54f	-0.1959431
48	0xbd5d88bf	-0.05408549
49	0xbd835e36	-0.06414454
50	0x3e8131c4	0.2523328
51	0x3e03b25f	0.12861012
52	0xbdf63ef2	-0.120237246
53	0xbe758aea	-0.23978773
54	0x3e676cf5	0.22600158
55	0xbe08436a	-0.13306966
56	0x3c11dc10	0.008902565
57	0x3cb38ff1	0.021919223
58	0x3e24490c	0.1604349
59	0x3b2c7415	0.0026314307
60	0xbd2ac442	-0.041691072
61	0x3e0dbb4e	0.13840982
62	0xbdff62ca	-0.124700144
63	0xbc2ddee0	-0.01061222
64	0x3cc090c2	0.023506526
65	0x3d99cee2	0.07510163
66	0x3e46119d	0.19342656
67	0x3c93ad8c	0.01802709
68	0x3c23d93f	0.010000526
69	0xbb98a6e0	-0.004658565
70	0x3db6bf2a	0.089231804
71	0xbd802ca2	-0.06258513
72	0x3cc6db8b	0.024274608
73	0xbd5c157e	-0.053731434
74	0x3c9be206	0.019028675
75	0xbb17231e	-0.0023061703
76	0x3b1442bd	0.0022622787
77	0xbd9c8137	-0.07641833
78	0x3dbcdabe	0.09221409
79	0xbe23e0f1	-0.16003777
80	0x3c0261d5	0.007957895
81	0xbdb22497	-0.08698385
82	0x3d6feff0	0.05857843
83	0xbe40690c	-0.18790072
84	0x3e1aee84	0.15130049
85	0xbdc8bbb0	-0.098014235
86	0x3ddfdc26	0.10930662
87	0xbd635094	-0.055496767
88	0x3bb00f0c	0.0053728875
89	0x3e0c7fd0	0.13720632
90	0xbd0ee025	-0.03488173
91	0x3de7abb1	0.113120444
92	0xbd8f9a04	-0.07011798
93	0x3c9b2d22	0.01894242
94	0x3d52c5fd	0.051458348
95	0x3e0b75f0	0.13619208
96	0x3dfcdb13	0.123464726
97	0xbe3fde48	-0.18737137
98	0xbe3bb4d3	-0.18330698
99	0xbd5df9fa	-0.054193474
100	0xbd513e3b	-0.05108474
101	0xbe6859fd	-0.22690578
102	0x3deb2ff8	0.11483759
103	0x3ec76565	0.38944545
104	0x3dd06852	0.101761475
105	0x3c7d03a8	0.015442766
106	0x3d8fc476	0.07019894
107	0x3e299036	0.16558918
108	0x3d205a6f	0.039148744
109	0x3d17b3cd	0.037036706
110	0x3de5a1c5	0.11212496
111	0x3cce0485	0.02514864
112	0x3d274ea7	0.040846493
113	0xbd385e95	-0.045012075
114	0x3e816b36	0.25277108
115	0x3e4c4a29	0.19950165
116	0x3db73b81	0.08946896
117	0xbe0278d2	-0.12741402
118	0x3de7e64d	0.11323223
119	0x3dd5a7ed	0.1043242
120	0xbe21ca99	-0.15799941
121	0x3e24b1ae	0.16083404
122	0x3ca9f0d2	0.020744715
123	0x3e030670	0.12795424
124	0xbd69f3d4	-0.0571173
125	0x3e50fcee	0.20408985
126	0x3e6353f7	0.22199999
127	0x3e263e4a	0.16234699
128	0xbcad5fbe	-0.021163817
129	0x3c01d717	0.007924817
130	0x3e21cc29	0.15800537
131	0xbd2f23c3	-0.042758714
132	0x3c07be89	0.008285173
133	0x3da731c1	0.08163787
134	0xbe61a88f	-0.22036956
135	0x3debe4fd	0.115182854
136	0x3d39bc4e	0.045345597
137	0xbd769688	-0.06020215
138	0x3e09c3bc	0.13453573
139	0xbd297c64	-0.041378394
140	0x3e1d2662	0.15346673
141	0xbd935c96	-0.07195394
142	0xbce76d6b	-0.028250417
143	0xbe17caaa	-0.14823404
144	0x3dca6370	0.098822474
145	0x3d0f6c8b	0.035015624
146	0x3d7e3a1d	0.06206714
147	0x3d2a9c1a	0.041652776
148	0xbd9b674d	-0.075880624
149	0x3e8a2853	0.2698389
150	0x3d3b0b43	0.045665037
151	0x3dccc7a8	0.09999019
152	0x3dbcf4fa	0.09226413
153	0x3defa33a	0.11701055
154	0x3d528280	0.051393986
155	0x3d27843a	0.040897585
156	0xbda4e39a	-0.08051224
157	0x3dc9e25d	0.098576285
158	0xbdf21b5d	-0.118216254
159	0xbb648c5c	-0.00348737
160	0x3e1c893a	0.15286723
161	0xbe032d4d	-0.1281025
162	0x3bc95f15	0.006145368
163	0xbd8ed94e	-0.06975041
164	0x3e2c5e08	0.16832745
165	0xbdb8d5cd	-0.09025154
166	0xbdb02f26	-0.08602743
167	0x3e144d5e	0.14482638
168	0x3ddfcbe1	0.10927559
169	0xbe540d33	-0.2070816
170	0x3b1ee665	0.0024246213
171	0x3e4770f9	0.1947669
172	0x3e00a2b4	0.12562066
173	0x3e635caf	0.22203325
174	0x3e3e3b95	0.18577416
175	0xbe276384	-0.16346556
176	0xbe670113	-0.22559004
177	0xbe9e80a7	-0.3095753
178	0xbd8fbd7c	-0.07018563
179	0xbc4f2cb1	-0.012644933
180	0x3e359f23	0.17736487
181	0xbe85a272	-0.26100498
182	0x3d9882bf	0.07446813
183	0x3dbcf84e	0.09227048
184	0xbe434600	-0.19069672
185	0xbe7f7a98	-0.2494911
186	0xbcd972b2	-0.026543949
187	0x3e37d093	0.17950659
188	0xbd617b67	-0.055049326
189	0xbd06cd8b	-0.032910865
190	0x3e75e14e	0.24011728
191	0x3e51e3ae	0.20497009
192	0x3d6fcdeb	0.058545988
193	0xbbddfcbd	-0.0067745135
194	0xbd25e7fe	-0.040504448
195	0x3da5b8d8	0.08091897
196	0xbdbaaa34	-0.09114495
197	0xbe9290a0	-0.28625965
198	0xbe5bc734	-0.21462709
199	0xbc4a6ee2	-0.012355538
200	0x3e65e0ea	0.22449079
201	0xbc9d6b0b	-0.019216081
202	0xbc5cb691	-0.013471262
203	0xbe071457	-0.13191353
204	0x3e21f294	0.15815192
205	0xbde05e1b	-0.10955449
206	0x3d3d812b	0.046265762
207	0xbe9ae161	-0.30250075
208	0x3cf52a66	0.029927444
209	0xbd8aa8c5	-0.067704715
210	0x3d82b903	0.063829444
211	0xbb092489	-0.0020926318
212	0xbdb060a4	-0.08612183
213	0x3e75b7ba	0.23995867
214	0x3e256e08	0.16155255
215	0x3dcae157	0.099062614
216	0x3d317494	0.04332407
217	0xbb0d356a	-0.002154673
218	0xbdbb0837	-0.09132426
219	0x3cd32148	0.025772706
220	0xbe2194b0	-0.15779376
221	0x3dd1eaf6	0.10249893
222	0x3dba2297	0.09088629
223	0x3e3bb141	0.18329336
224	0xbcd1002a	-0.025512774
225	0xbdf71640	-0.12064791
226	0xbda93403	-0.082618736
227	0xbe26a24f	-0.16272853
228	0xba10e560	-0.00055273436
229	0x3d9f5196	0.07779233
230	0x3b7f0f6d	0.0038919107
231	0x3b0f7de9	0.0021895117
232	0xbda79203	-0.081821464
233	0xbdf9bffc	-0.12194821
234	0xbd7b39ab	-0.061334293
235	0xbd7df904	-0.062005058
236	0xbc2eae78	-0.010661714
237	0xbe4214de	-0.18953273
238	0x3c3260b6	0.0108873155
239	0xbe17fbb1	-0.14842106
240	0x3e76b9e6	0.24094352
241	0xbe00ef3d	-0.12591262
242	0x3e0d3883	0.13791089
243	0xbc64c74f	-0.0139635345
244	0x3e9841d1	0.29737714
245	0xbe19e5a5	-0.15029009
246	0x3df73774	0.12071124
247	0xbdaf3fd8	-0.08557099
248	0x3e2692d2	0.16266945
249	0xbe3b4ec8	-0.18291771
250	0x3d6a2d9c	0.057172403
251	0x3ce516a8	0.027964905
252	0x3d8f6440	0.07001543
253	0x3d47ab3a	0.04874728
254	0xbe6af820	-0.22946215
255	0x3d7fe647	0.06247547
