Preprocessing/embedding_pretrained_weights_papercup.pt (torch, 114767 bytes, 4 tensors)

0.weight f4 [50, 42]
0	0xbf41adca	-0.75655806
1	0x3ec9f553	0.3944498
2	0xbe726f83	-0.23675351
3	0x3f81a996	1.0129879
4	0x3e77ea0a	0.24210373
5	0x3f6932f5	0.9109338
6	0xbe816d05	-0.25278488
7	0xbe62c5a0	-0.221457
8	0x3f34779a	0.70495
9	0x3e7bf3eb	0.24604766
10	0x3f160b2c	0.58610797
11	0x3e31e5c6	0.17372808
12	0xbf6a54de	-0.9153575
13	0x3e9f92c2	0.31166655
14	0x3f415722	0.7552358
15	0xbd8dfa70	-0.06932533
16	0x3e1dc017	0.15405308
17	0xbdb5507c	-0.08853242
18	0xbec9d14e	-0.394175
19	0xbf3137ef	-0.6922597
20	0xba223100	-0.0006187111
21	0xbf5d01e0	-0.86330986
22	0xbf096fe9	-0.53686386
23	0x3e842fd9	0.25817755
24	0x3e14a831	0.14517285
25	0x3d01221a	0.031526662
26	0xbe02b4e4	-0.12764317
27	0xbf019cbc	-0.5062978
28	0x3db3140f	0.0874406
29	0xbf70540b	-0.9387824
30	0x3eca9ca5	0.39572635
31	0xbe675308	-0.22590268
32	0xbe1c2618	-0.15248907
33	0xbf018d62	-0.5060636
34	0x3d2b513c	0.041825518
35	0x3eee71fe	0.46571344
36	0xbf6e594e	-0.9310502
37	0xbe3efa48	-0.18650162
38	0xbf029434	-0.5100739
39	0x3f657611	0.8963328
40	0xbdf78a67	-0.12086945
41	0xbdfd08e0	-0.123552084
42	0x3f6b831e	0.91996944
43	0xbedcb5c6	-0.43107432
44	0x3e22398d	0.15842266
45	0x3f5ab24b	0.85428303
46	0xbdbf6422	-0.09345271
47	0xbee30a68	-0.44343877
48	0x3ea04765	0.3130447
49	0x3ecf1e32	0.40452725
50	0x3ff3c2e4	1.9043851
51	0x3ff91d90	1.9462147
52	0xbf52d71a	-0.8235947
53	0xbf2ab869	-0.6668764
54	0x3fd4406e	1.6582162
55	0xbf0efb2e	-0.5585202
56	0x3ef1063c	0.4707507
57	0x3dc18ad7	0.0945031
58	0x3db0d6ba	0.08634706
59	0xbdf62c8e	-0.12020217
60	0x3d3f9d28	0.046780735
61	0xbf034067	-0.51270145
62	0x3dafbe1e	0.08581184
63	0x3e95142d	0.29116955
64	0x3e72a41f	0.2369542
65	0xbe7dd7c0	-0.24789333
66	0x3dd39491	0.10331071
67	0x3d41101e	0.04713451
68	0x3da3dd56	0.08001201
69	0xbf62b2b5	-0.88553935
70	0x3f4fafb3	0.8112747
71	0x3f95e5d9	1.1710769
72	0xbf4ec2cc	-0.80765986
73	0xbf740337	-0.95317405
74	0x3d206cdc	0.039166316
75	0xbf1b222a	-0.60599005
76	0xbf0c52b6	-0.54813707
77	0x3e70b199	0.23505248
78	0x3eb09281	0.34486774
79	0x3debeae8	0.11519414
80	0x3eade240	0.33961678
81	0x3ebbadc6	0.36656016
82	0xbf41c178	-0.75685835
83	0xba935400	-0.0011240244
84	0xbf9ad77e	-1.2097013
85	0x3eb640d7	0.35596344
86	0xbf45be21	-0.7724324
87	0x3fc28cca	1.5199215
88	0x3e888d76	0.26670426
89	0xbf4e0e21	-0.8049031
90	0xbea51641	-0.3224354
91	0x3f8096c1	1.0046006
92	0xbf574366	-0.84087217
93	0x3e145c67	0.14488374
94	0x3e8807ed	0.26568547
95	0xbfa03743	-1.2516865
96	0x3eff0acd	0.49812928
97	0xbe18cd75	-0.14922126
98	0xbe7d2d8c	-0.24724406
99	0xbe11962e	-0.14217445
100	0xbd6bba00	-0.05755043
101	0xbf15640c	-0.58355784
102	0x3e390d5d	0.18071504
103	0x3f69b73b	0.9129521
104	0x3e09529b	0.13410418
105	0x3ea8e9b8	0.32990813
106	0xbf23755c	-0.6385095
107	0xbedba7e3	-0.42901525
108	0x3ef576eb	0.4794229
109	0xbf1a94e5	-0.60383445
110	0x3c84f200	0.016228676
111	0xbedae3d3	-0.4275194
112	0xbf82f8e8	-1.023221
113	0x3ea9008f	0.3300824
114	0x3f222f77	0.63353676
115	0xbfb000b2	-1.3750212
116	0xbdb59f59	-0.08868284
117	0xbf8fef13	-1.1244835
118	0xbdea6e4f	-0.11446821
119	0x3ec81aa2	0.3908282
120	0x3f130091	0.5742274
121	0xb7e4f4b4	-2.7293667e-05
122	0x3f2c2e37	0.6725802
123	0x3f376b5e	0.71648204
124	0xbe988ca8	-0.29794812
125	0x3de3ed7e	0.111292824
126	0x3f7d62d5	0.9897893
127	0xbf403c6e	-0.7509221
128	0x3f440cad	0.7658184
129	0x3e017fac	0.12646359
130	0xbe63072a	-0.22170702
131	0xbf406a5d	-0.751623
132	0x3d8be0a9	0.0682996
133	0x3e38ff38	0.18066108
134	0x3f8eb931	1.1150266
135	0x3f30adaf	0.6901502
136	0xbecbba32	-0.39790493
137	0x3f8b082a	1.0861866
138	0xbf1d06c8	-0.6133847
139	0xbf7b5688	-0.9817891
140	0xbe4bbbe9	-0.19895901
141	0xbf3f6640	-0.74765396
142	0xbdc790c6	-0.0974441
143	0xbff281d9	-1.8945876
144	0xbf4c5553	-0.79817694
145	0x3d1c4c37	0.03815862
146	0x3e04a4f1	0.12953545
147	0xbe11135e	-0.14167544
148	0x3f274a77	0.65348
149	0xbd697516	-0.056996427
150	0xbf1d9ca1	-0.6156712
151	0x3f4b31eb	0.79373044
152	0xbcc09950	-0.023510605
153	0x3f6f19cb	0.9339873
154	0xbf2a6f2c	-0.66575885
155	0xbf4c9e09	-0.7992864
156	0xbe4eddfc	-0.20201868
157	0xbef5b65a	-0.47990686
158	0x3dba6caa	0.09102757
159	0x3f275932	0.65370476
160	0x3f0d855c	0.55281615
161	0xbf4a7bf0	-0.79095364
162	0xbebce361	-0.36892226
163	0x3e525be0	0.2054286
164	0x3e87160d	0.2638401
165	0xbf2e2619	-0.6802688
166	0x3f45e0c5	0.77296096
167	0x3d67ab00	0.056559563
168	0xbe49cc61	-0.1970687
169	0xbd45ebc0	-0.04832053
170	0x3fb7f1f2	1.4370711
171	0x3f759526	0.9593071
172	0xbeaad1df	-0.33363244
173	0xbf36fea6	-0.7148231
174	0x3ebb950e	0.36637157
175	0x3f86a719	1.0519744
176	0xbe98fd81	-0.29880908
177	0xbb568280	-0.0032731593
178	0xbe8e2d44	-0.2776891
179	0x3f5f97a6	0.8734077
180	0x3ef636d8	0.48088717
181	0xbf8b06ad	-1.0861412
182	0x3e54078e	0.20706007
183	0x3dc7dac8	0.09758526
184	0x3e10cb5f	0.1414008
185	0xbfd0be91	-1.6308156
186	0xbeb7be22	-0.35887247
187	0x3f0fc0bb	0.5615346
188	0xbe0ae6ee	-0.13564655
189	0x3f861d56	1.0477703
190	0xbf3fd76e	-0.74938095
191	0xbf49a4b9	-0.7876697
192	0x3eb34683	0.35014734
193	0xbd145591	-0.036214415
194	0x3d37c8b8	0.044869155
195	0xc009ba76	-2.1520057
196	0x3e927e98	0.28612208
197	0xbf53bf80	-0.8271408
198	0x3de10e97	0.10989111
199	0x3eeeec14	0.46664488
200	0xbe170516	-0.14748034
201	0x3f44a656	0.7681631
202	0x3b5d8f2a	0.0033807256
203	0x3ea0df6a	0.3142045
204	0x3e764845	0.24051006
205	0xbe4c7fe1	-0.19970657
206	0x3ee34ce7	0.4439461
207	0x3f3e6a11	0.74380594
208	0xbee95a28	-0.45576596
209	0x3e132077	0.14367853
210	0xc002e946	-2.0454879
211	0xbfa15c96	-1.260638
212	0x3f2f2d77	0.6842875
213	0xbf42cb8e	-0.7609185
214	0x3e82d35f	0.25551888
215	0x3e7e6fe1	0.24847366
216	0xbe154ea3	-0.14580779
217	0xbed4ae44	-0.41539204
218	0xbf13260b	-0.57479924
219	0x3f761733	0.9612915
220	0xbea68c1c	-0.3252877
221	0xbeb55010	-0.35412645
222	0xbf8a6d1e	-1.081455
223	0xbf0e68c9	-0.5562864
224	0x3d5c37c8	0.053764135
225	0xbe75b932	-0.23996428
226	0xbdb3f3ea	-0.08786757
227	0xbe70444b	-0.23463552
228	0x3dc83875	0.09776393
229	0x3f252b10	0.64518833
230	0xbba4c900	-0.005028844
231	0x3f1ec499	0.62018734
232	0x3e9bf17e	0.3045768
233	0x3f76b3f9	0.96368366
234	0x3fd6f0ae	1.67922
235	0x3daf86d2	0.08570637
236	0xbdfce7b1	-0.12348879
237	0x3d32e4b1	0.04367513
238	0xbf7fe074	-0.99951863
239	0x3f75c986	0.96010625
240	0x3ee4c713	0.44683132
241	0xbdc90e80	-0.09817219
242	0xbc457295	-0.012051244
243	0x3e97171f	0.29509827
244	0xbf5763f4	-0.8413689
245	0x3dc4f29e	0.09616588
246	0xbcfa2d80	-0.030539274
247	0xbea71d07	-0.32639334
248	0xbf73b602	-0.95199597
249	0x3ea24bc7	0.3169844
250	0x3ea9ee81	0.33189777
251	0x3dad2f2a	0.084562615
252	0x3d938b4b	0.072043024
253	0x3eca3362	0.39492327
254	0x3ec8fb3d	0.3925418
255	0x3f05099c	0.5196779

0.bias f4 [50]
0	0x3e36d6c9	0.17855372
1	0xbd8b4bb5	-0.06801549
2	0x3e179275	0.14801963
3	0xbd9aef6e	-0.07565199
4	0xbd82a8a0	-0.06379819
5	0x3d13733f	0.03599858
6	0xbe05b788	-0.13058293
7	0xbd7e4f14	-0.062087134
8	0xbe209207	-0.15680705
9	0xbd377f8c	-0.044799373
10	0xbe81bb24	-0.2533809
11	0xbc9ad1c2	-0.018898848
12	0xbdbb2885	-0.09138588
13	0x3d00e4a0	0.031468034
14	0xbe5d080d	-0.21585102
15	0x3e4fd01e	0.20294234
16	0x3e5de280	0.21668434
17	0xbda4134b	-0.08011492
18	0x3ecb7777	0.39739582
19	0x3c2ed427	0.010670698
20	0xbd13b775	-0.03606363
21	0x3c1d3e9e	0.009597449
22	0xbd71f944	-0.05907561
23	0xbe3fc2c2	-0.18726638
24	0xbe84cb4f	-0.25936362
25	0xbe374e13	-0.17900877
26	0xbe3b460c	-0.1828844
27	0xbe4233ac	-0.18965024
28	0x3e2b3d1d	0.16722532
29	0xbe94db29	-0.29073456
30	0xbcf08126	-0.029358458
31	0xbe05a5a8	-0.13051474
32	0x3e872226	0.2639324
33	0x3e1dc8dc	0.15408653
34	0x3d5cf91b	0.053948503
35	0xbd3eacc5	-0.046551485
36	0xbc6cfb49	-0.014464208
37	0xbea62594	-0.32450545
38	0x3ce4994b	0.027905127
39	0xbddc6b32	-0.107626334
40	0x3dfa8716	0.12232797
41	0x3d35a383	0.04434539
42	0xbd062267	-0.032747652
43	0x3dd098dd	0.10185406
44	0xbe92f271	-0.28700593
45	0x3cb6215d	0.022232706
46	0xbe4b44d0	-0.19850469
47	0xbda4964f	-0.080364816
48	0x3e950f71	0.29113343
49	0x3e1fe9f0	0.15616584

2.weight f4 [512, 50]
0	0x3edaf157	0.42762253
1	0xbeffb456	-0.49942273
2	0x3e7a353c	0.2443437
3	0x3d693738	0.056937426
4	0x3df42748	0.11921555
5	0xbedfc417	-0.43704292
6	0xbded7afb	-0.11595722
7	0xbe2cbafe	-0.16868207
8	0xbc8077ca	-0.01568212
9	0x3e5887ff	0.21145628
10	0xbecfaf81	-0.40563586
11	0xbf0ebc4c	-0.5575607
12	0x3e60bfb9	0.21948136
13	0x3f048e56	0.5177969
14	0xbef67b3e	-0.481409
15	0xbd7897dc	-0.0606917
16	0x3e4ae7d8	0.19815004
17	0xbadca8a8	-0.0016834931
18	0xbf33eeba	-0.7028614
19	0xbe73195b	-0.23740141
20	0xbea4766d	-0.32121602
21	0xbcdfd3a6	-0.027322602
22	0xbe73ed0d	-0.23820896
23	0xbe2c3276	-0.16816124
24	0x3f6edbfc	0.9330442
25	0x3eb3a7b6	0.3508889
26	0x3f2789b4	0.65444493
27	0xbe5d0f05	-0.21587761
28	0x3e9ee3b0	0.31033087
29	0xbbe8314d	-0.0070859552
30	0xbca6f01a	-0.020378161
31	0xbded2d74	-0.11580935
32	0x3e599ef6	0.21252045
33	0xbf0e7d26	-0.5565971
34	0xbe52d607	-0.20589457
35	0x3e8cf6b8	0.2753198
36	0x3e341fd4	0.17590266
37	0x3e270275	0.16309531
38	0x3efd5a94	0.49483168
39	0x3f3f8669	0.7481447
40	0xbd8f54b6	-0.06998579
41	0x3d22c50f	0.03973871
42	0x3ebbd835	0.3668839
43	0x3df0e3fc	0.117622346
44	0x3e0dd765	0.13851698
45	0xbf0d95a2	-0.55306447
46	0x3e397dc7	0.18114386
47	0xbf593eb0	-0.8486128
48	0xbeb5f102	-0.35535437
49	0x3eb55f6c	0.35424364
50	0x3e9c8a8a	0.30574447
51	0xbed7b727	-0.42131922
52	0x3eb8acec	0.3606943
53	0xbd37c2df	-0.044863578
54	0x3c7223cc	0.014779042
55	0x3e7e4eb2	0.24834707
56	0xbd4bf3a3	-0.049792897
57	0x3e7e4ffa	0.24835196
58	0x3e2d6070	0.16931319
59	0x3f3f9679	0.7483898
60	0x3e09d034	0.1345833
61	0xbe366c1c	-0.17814678
62	0xbd1a3fe8	-0.037658602
63	0x3bb3ecf8	0.0054908954
64	0x3de22880	0.11042881
65	0x3e1057ee	0.14096043
66	0xbd699a99	-0.0570322
67	0xbe3fe16f	-0.1873834
68	0xbece4e78	-0.40294242
69	0xbe83775b	-0.25676998
70	0xbe35a880	-0.17740059
71	0xbe3d8c92	-0.18510655
72	0xbe040a38	-0.12894523
73	0x3e52c80d	0.20584126
74	0xbf24fcb2	-0.6444808
75	0xbea964ec	-0.3308481
76	0xbd9d4581	-0.076792724
77	0xbe280585	-0.16408356
78	0xbec44f84	-0.38341916
79	0xbe820033	-0.25390777
80	0xbebcca01	-0.36872867
81	0x3e142a77	0.14469324
82	0x3d8eb31a	0.06967755
83	0x3e95fcf4	0.2929455
84	0x3da2072a	0.07911523
85	0x3e0e6edd	0.13909478
86	0xbed7539c	-0.42055976
87	0xbdac5836	-0.084152624
88	0xbd34d7f7	-0.044151273
89	0x3df2ce2a	0.11855729
90	0x3dc8aaf1	0.097982295
91	0x3e500115	0.20312913
92	0xbe3c833b	-0.18409435
93	0xbe8a6445	-0.27029625
94	0x3df4e173	0.119570635
95	0x3cccd48e	0.025003698
96	0xbe9ed5c1	-0.31022456
97	0xbc605712	-0.013692634
98	0x3e7647e6	0.24050865
99	0x3ea9a14d	0.33130875
100	0xbe19b9e4	-0.15012318
101	0x3e1d54be	0.15364358
102	0xbf33af5a	-0.7018944
103	0x3f21807d	0.6308668
104	0xbe61d690	-0.22054505
105	0x3bbb0323	0.005707161
106	0xbe3f67cc	-0.18691939
107	0xbe7fcefa	-0.24981299
108	0x3e2660da	0.16247883
109	0xbf29f744	-0.6639292
110	0x3f0c1694	0.5472195
111	0xbda31501	-0.079629906
112	0x3df9491f	0.1217215
113	0x3e808873	0.25104102
114	0x3e5a9fdf	0.21350048
115	0x3eded732	0.43523556
116	0xbe88f2d3	-0.2674776
117	0x3e7ea189	0.24866308
118	0xbdbb8090	-0.09155381
119	0xbdca377c	-0.09873864
120	0xbeb84ce1	-0.35996154
121	0xbec30b53	-0.38094577
122	0xbbdcb8c1	-0.0067358916
123	0x3ef5f80b	0.48040804
124	0x3ebe16fc	0.3712691
125	0x3bef63b0	0.007305585
126	0xbed3f97b	-0.41401276
127	0x3dcef932	0.10106124
128	0x3ebeab9d	0.37240306
129	0xbe94523e	-0.28968996
130	0x3dfc6d2f	0.123255126
131	0xbdcaec8c	-0.09908399
132	0xbe2ddb00	-0.16978073
133	0x3dc51607	0.09623342
134	0x3e43fc66	0.19139251
135	0xbe8a56b8	-0.27019286
136	0xbd1d63fd	-0.038425434
137	0xbe9ea079	-0.30981806
138	0x3e987056	0.29773206
139	0x3e1ce756	0.15322623
140	0xbd7e20cc	-0.062042996
141	0xbe901278	-0.2813909
142	0xbe07ffe6	-0.13281211
143	0xbefd8c3c	-0.49521053
144	0xbe166462	-0.1468673
145	0x3cf2b518	0.029627368
146	0xbedf1c89	-0.43576458
147	0x3e7ee685	0.24892624
148	0xbea991f1	-0.33119157
149	0xbebd3e64	-0.36961663
150	0xbe8f8f5e	-0.28039068
151	0x3f377304	0.71659875
152	0x3ddd58a9	0.10807926
153	0x3f031070	0.51196957
154	0xbd2dfee2	-0.042479403
155	0xbf4a21b1	-0.7895766
156	0xbf1361a8	-0.57570887
157	0x3e499770	0.19686675
158	0x3e611f7e	0.2198467
159	0x3e440114	0.19141036
160	0xbebbfb83	-0.36715326
161	0x3be7c94e	0.007073558
162	0x3ce7868d	0.028262401
163	0x3f5208b1	0.8204451
164	0x3eb7f3fd	0.35928336
165	0xbdd550d2	-0.10415806
166	0xbd9a046f	-0.07520377
167	0xbdcd1aa1	-0.10014845
168	0x3e232dc6	0.1593543
169	0xbf250844	-0.6446574
170	0xbedf6916	-0.43634862
171	0x3e02e02f	0.12780832
172	0x3e7d3bd8	0.2472986
173	0xbef27c41	-0.47360423
174	0xbe212023	-0.15734915
175	0xbe94802a	-0.2900403
176	0x3d8679eb	0.06566223
177	0xbebb4886	-0.36578768
178	0x3f5ac609	0.8545843
179	0xbee3808c	-0.4443401
180	0xbaa9baad	-0.001294931
181	0xbe769316	-0.24079546
182	0xbf36d084	-0.7141192
183	0xbd8d223a	-0.06891294
184	0x3e8e042f	0.27737567
185	0xbe2d62fe	-0.16932294
186	0xbea6e261	-0.32594588
187	0xbe94fd87	-0.29099676
188	0xbeb49f8b	-0.35277972
189	0xbde13a19	-0.109974094
190	0x3d5f2c8a	0.054485835
191	0xbe8272d3	-0.2547823
192	0xbe5cb51e	-0.21553466
193	0xbe84c19b	-0.2592896
194	0x3deffd0a	0.11718185
195	0xbe1ecd67	-0.15508042
196	0x3f152460	0.5825863
197	0xbee85ae4	-0.45381844
198	0xbe1e6610	-0.15468621
199	0xbdb64df1	-0.08901585
200	0x3da8267a	0.08210464
201	0xbe3e15f0	-0.18563056
202	0xbde2f453	-0.110817574
203	0x3e9c142c	0.3048414
204	0xbe2df99c	-0.1698975
205	0x3ea8c8c6	0.32965678
206	0xbdf01075	-0.11721889
207	0x3e6f44cb	0.23366086
208	0x3f6d928c	0.9280174
209	0xbe856891	-0.2605634
210	0x3eadd928	0.3395474
211	0xbe4bed06	-0.19914636
212	0xbe82a99d	-0.2552003
213	0xbd886062	-0.066590086
214	0x3eeb4099	0.45947722
215	0x3ee3eb40	0.4451542
216	0xbe1c8ccd	-0.15288086
217	0x3f36a67e	0.71347797
218	0x3dcb0ac9	0.099141665
219	0x3f1c49b1	0.61049944
220	0xbf015430	-0.50519085
221	0x3d2a5e32	0.041593738
222	0x3eafed2b	0.34360632
223	0x3d7e08dc	0.062020168
224	0xbe5aa126	-0.21350536
225	0x3ee640da	0.44971353
226	0x3edfbaf0	0.4369731
227	0xbee4add8	-0.44663882
228	0x3ed76840	0.42071724
229	0x3e3ffd0e	0.18748876
230	0x3e1c392f	0.15256189
231	0x3e896732	0.26836544
232	0x3b8ca709	0.004292373
233	0x3ed3308a	0.4124797
234	0x3e9ff6e0	0.31243038
235	0xbe0be0ab	-0.13659923
236	0xbee9c917	-0.45661232
237	0x3ed5c788	0.41753793
238	0x3e9bcc66	0.3042938
239	0x3df13f45	0.11779646
240	0x3d22fecd	0.03979378
241	0x3e84bdb1	0.25925973
242	0xbf0b4207	-0.54397625
243	0xbf679712	-0.9046489
244	0xbe63ff22	-0.22265294
245	0x3eb3e46e	0.35135216
246	0xbdd9b443	-0.10630085
247	0x3e918d1b	0.28427967
248	0xbf03b6ba	-0.51450694
249	0xbe943f2c	-0.28954446
250	0xbeb4252d	-0.35184613
251	0xbe8101ba	-0.2519663
252	0x3e41aaf6	0.18912873
253	0x3d1615c5	0.036641855
254	0xbd6b93cc	-0.057513997
255	0x38128270	3.4930592e-05

2.bias f4 [512]
0	0xbe38ef1f	-0.18059967
1	0x3dd981c9	0.10620458
2	0x3c9ca90a	0.019123573
3	0xbe195c69	-0.14976658
4	0x3e54767f	0.20748328
5	0xbdb5e1b2	-0.088809386
6	0xbd973036	-0.073822424
7	0xbe6fa9eb	-0.23404662
8	0x3c637560	0.013882965
9	0x3cbe8d9c	0.023260884
10	0xbdebea8e	-0.11519347
11	0xbde1f53d	-0.110331036
12	0x3df57381	0.11984921
13	0xbe2170cb	-0.15765683
14	0x3dc41885	0.09574989
15	0x3e561fbd	0.20910545
16	0xbd3a95aa	-0.045552887
17	0x3b1ef981	0.0024257603
18	0xbddbc7be	-0.10731457
19	0xbe2e5c5c	-0.1702742
20	0xbd8a8c60	-0.06765056
21	0xbcfa37a6	-0.030544113
22	0x3dcbd81b	0.09953328
23	0xbd07a5f1	-0.03311724
24	0x3d305635	0.043050963
25	0x3df8b61d	0.1214411
26	0xbc5bfa44	-0.013426367
27	0x3e2698bd	0.16269203
28	0x3e580830	0.21096873
29	0xba0852de	-0.00052003365
30	0x3d8edcf3	0.069757365
31	0x3e7706d0	0.24123693
32	0x3de31e31	0.11089743
33	0x3e4601db	0.19336645
34	0x3c6cc356	0.014450869
35	0xbd1d71f0	-0.038438737
36	0xbd6bf807	-0.057609584
37	0xbb197915	-0.0023418118
38	0x3c3952fe	0.011311291
39	0x3e65a01e	0.22424361
40	0x3cfacd78	0.030615553
41	0xbd704fca	-0.058669843
42	0x3d5b2f97	0.053512182
43	0xbdba3247	-0.09091621
44	0x3d9cf79b	0.076644145
45	0x3e2ced0d	0.16887303
46	0xbd9f94bf	-0.07792043
47	0x3dada76c	0.08479199
48	0xbd2e4922	-0.042550214
49	0xbd8fbf0d	-0.07018862
50	0x3de1505a	0.11001654
51	0x3e1447fd	0.14480586
52	0xbe59ddc3	-0.21276002
53	0x3e19f48b	0.15034692
54	0xba966502	-0.0011474194
55	0x3daa5566	0.0831707
56	0x3e526288	0.20545399
57	0xbde47419	-0.11154956
58	0xbc44bac8	-0.012007423
59	0x3d8dda45	0.06926397
60	0xbdae6917	-0.08516138
61	0x3d803c61	0.06261516
62	0xbe040b1d	-0.12894864
63	0xbe789b15	-0.24277909
64	0x3d244b83	0.040111076
65	0x3c2fffb6	0.010742119
66	0x3e506437	0.20350729
67	0xbdd48d89	-0.10378558
68	0xbda82238	-0.08209652
69	0x3dc2a44a	0.09503992
70	0xbd6b7b39	-0.05749056
71	0xbd5d5270	-0.054033697
72	0xbe2dc831	-0.16970898
73	0xbd567853	-0.052360844
74	0x3d365b6d	0.044520784
75	0x3e2fda7c	0.17173189
76	0x3ded2805	0.11579899
77	0xbdb556d3	-0.08854451
78	0xbdd6e420	-0.1049273
79	0xbd1d24d9	-0.03836522
80	0x3de9b42b	0.114113174
81	0x3d9f7143	0.07785275
82	0x3e8e8d14	0.2784201
83	0xbe560542	-0.20900443
84	0x3ce3c40b	0.027803442
85	0xbe81e4c0	-0.25369835
86	0xbcd4e091	-0.025985988
87	0xbe123bf2	-0.1428068
88	0x3d8213b2	0.06351413
89	0x3cd2a36e	0.025712695
90	0x3d80147e	0.062539086
91	0x3de7428e	0.11291991
92	0x3d9ddf17	0.07708567
93	0x3e4261aa	0.18982568
94	0x3e4f834b	0.20264928
95	0x3e93a93d	0.28840056
96	0x3be2360b	0.006903415
97	0x3e0d9006	0.13824472
98	0xbb859818	-0.004076969
99	0x3dd6d657	0.10490101
100	0xbda913e4	-0.08255747
101	0xbd9a8ec3	-0.07546761
102	0x3e0401ef	0.12891363
103	0x3e0c976d	0.1372964
104	0xbaddf306	-0.0016933389
105	0xbddda344	-0.10822156
106	0x3db85301	0.09000207
107	0x3e105b1b	0.14097254
108	0x3d4060ad	0.046967197
109	0xbc694d63	-0.014239642
110	0x3e76453c	0.24049848
111	0x3d0bc5e4	0.03412427
112	0x3de391c6	0.111117885
113	0x3df476da	0.11936732
114	0x3e2510c5	0.16119678
115	0x3cc1b744	0.023646958
116	0xbdd015bc	-0.101603955
117	0xbcca274b	-0.02467694
118	0xbd4d07b2	-0.050056167
119	0x3e699320	0.2281003
120	0xbd3683f9	-0.044559453
121	0xbd831c16	-0.06401841
122	0xbdeb13f7	-0.11478417
123	0xbcf4f95c	-0.02990406
124	0xbdb6f3ba	-0.08933206
125	0xbd90b8fc	-0.07066533
126	0x3c11535e	0.008869974
127	0x3dc63685	0.096783675
128	0x3d9840f9	0.074342676
129	0xbe0b7ab4	-0.13621026
130	0x3e194b13	0.14970045
131	0x3d8c96f9	0.06864733
132	0xbeb8631e	-0.3601312
133	0x3d68d30c	0.056841895
134	0x3e88d872	0.26727635
135	0xbb2d0484	-0.0026400397
136	0x3d9b1e4b	0.07574137
137	0xbddb932e	-0.10721432
138	0x3df07d65	0.11742667
139	0x3dadd980	0.084887505
140	0x3dd1fbae	0.10253082
141	0x3e543210	0.20722222
142	0x3d39e2a7	0.04538217
143	0x3d524e40	0.051344156
144	0x3d9a9b72	0.0754918
145	0xbc8cfbcc	-0.01720991
146	0xbe37fc4b	-0.17967336
147	0x3d972aa0	0.07381177
148	0xbc83d6d2	-0.016093645
149	0x3e158662	0.14602044
150	0x3c54a3c3	0.012978497
151	0xbd528889	-0.05139974
152	0xbc3ce2a9	-0.011528649
153	0x3d2316e1	0.03981674
154	0xbd4106df	-0.047125693
155	0x3da2c017	0.079467945
156	0x3db8b8e5	0.09019641
157	0x3e320f96	0.17388758
158	0xbdce8372	-0.10083665
159	0x3e8ec0c4	0.27881444
160	0x3e18d4ff	0.14925002
161	0xbd9203ce	-0.07129632
162	0x3dd3b7e0	0.10337806
163	0x3d8655ca	0.06559332
164	0x3df6eb12	0.12056555
165	0x3dc5edc0	0.09664488
166	0x3d457eec	0.048216745
167	0x3d07d20b	0.033159297
168	0xbe157d14	-0.14598495
169	0xbd1ee535	-0.038792808
170	0xbd552b6b	-0.05204336
171	0x3e1a3119	0.15057792
172	0xbe0e6123	-0.13904242
173	0x3db38fdf	0.087676756
174	0xbd45fec6	-0.048338674
175	0x3df2e153	0.118593834
176	0xb8b1ab2a	-8.4718995e-05
177	0xbe504cea	-0.2034184
178	0x3d9a57ab	0.075362526
179	0xbb9598fa	-0.0045653554
180	0xbc83c666	-0.016085815
181	0xbcfda1c2	-0.030960921
182	0x3d91d99d	0.071215846
183	0xbd7791c3	-0.060441744
184	0xbd98e6ab	-0.074658714
185	0xbd15b0a6	-0.03654542
186	0x3d878a01	0.06618119
187	0xbcd705c2	-0.026247863
188	0x397957fc	0.00023779267
189	0x3db81c3a	0.08989759
190	0x3dd8cff6	0.105865404
191	0xbcc833dc	-0.024438791
192	0x3cddf830	0.027095884
193	0xbcd5c77d	-0.0260961
194	0x3e0feb17	0.14054523
195	0xbe255f31	-0.16149594
196	0x3b703a0c	0.0036655692
197	0xbdad9ae0	-0.08476806
198	0xbbbb4e9b	-0.0057161576
199	0x3d762441	0.06009317
200	0xbd693f8a	-0.05694536
201	0x3d4bdd36	0.04977151
202	0xbc9413c0	-0.018075824
203	0xbc89ca71	-0.016820164
204	0x3cfc0b61	0.030767145
205	0x3c68d891	0.01421179
206	0x3d23252c	0.03983037
207	0x3daabb9e	0.083365664
208	0xbca2d3c2	-0.019876365
209	0x3d9bae21	0.07601572
210	0x3e8c7caa	0.2743886
211	0xbd108727	-0.03528514
212	0xbe3303ef	-0.1748197
213	0xbcb254d7	-0.02176897
214	0x3d674130	0.056458652
215	0xbd4c0e86	-0.049818538
216	0xbd8fabe0	-0.070152044
217	0xbe35861f	-0.17726944
218	0x3d390cb9	0.04517815
219	0xbd1233e7	-0.03569403
220	0xbe862890	-0.26202822
221	0x3aaa8c59	0.0013011798
222	0xbd8dff80	-0.069334984
223	0x3c65c83d	0.014024791
224	0xbce5a81b	-0.02803426
225	0xbd08440d	-0.033268023
226	0xbaeaa7f7	-0.0017902841
227	0xbcfcc62e	-0.030856218
228	0x3cfc4f0b	0.03079941
229	0xbd848cbd	-0.06472156
230	0xbd6ffd34	-0.058591083
231	0x3b1cda41	0.00239338
232	0x3d1d4d77	0.038403954
233	0xbdd84fe2	-0.105621114
234	0xbe4766f5	-0.19472869
235	0x3e321be4	0.17393452
236	0xbd92f9b1	-0.07176531
237	0xbd685fd7	-0.056732025
238	0x3e392adb	0.18082754
239	0xbbdda160	-0.006763622
240	0x3d3ce69a	0.046118356
241	0xbe9e57bb	-0.30926308
242	0x3e2b3c2b	0.16722171
243	0xbe2fe453	-0.17176943
244	0x3c67dd7b	0.014151926
245	0xbdb27546	-0.087137744
246	0x3d2a9548	0.041646272
247	0xbd9b6d44	-0.075892
248	0xbdab1a8d	-0.083546735
249	0x3e23ab1e	0.15983245
250	0x3d807e0e	0.06274043
251	0x3dae8f1c	0.0852339
252	0xbe097f34	-0.1342743
253	0x3d70b433	0.0587656
254	0x3c1a913e	0.0094340425
255	0xbe2f88e4	-0.17142063
